Deep_11_13/Ex5/ManyToOne.pt (torch, 115116 bytes, 19 tensors)

oEmbeeding.weight f4 [52, 4]
00000000: f38f 93bf a920 103e e6c0 8dbe 172d 93be
00000010: 0fc4 b43f 629d b33f 99f1 af3f edde 91bc
00000020: c1f3 adbf 20f7 c3bf 590d 7abe 6586 283f
00000030: bfa8 06bf 352a afbe ae91 9cbe 2078 d7bd
00000040: 921a fd3e 1c63 2ebf d3a2 a2bd 4816 85be
00000050: 7a63 f33c b5dd 87bd acba e53e 43f8 a7bd
00000060: 7cf7 8dbf c00a 883c 89ab 98bf aaec bebf
00000070: 9cf7 cabe 4bf8 0b3f 5d45 82be 66a3 9c3e
00000080: 2faf 8e3e af38 57bf 3691 b73f e5f5 bfbf
00000090: e59e cc3f f28c 05bf b335 7dbf 47d7 9fbf
000000a0: 3045 eabf c559 c73f 4574 07bf 45b9 c73f
000000b0: 739b a0bd c45d d8be 9681 21bf 4d1a 163f
000000c0: b75e 24bf c237 a7bd e7ba cb3d f5bb 64bf
000000d0: 35aa 87be de7f 663f 8289 453f 7ada cabf
000000e0: 965b 38bf 59f8 f8be 08de e43f 87df 0cc0
000000f0: f8e2 93bf 9abd e5be 17c6 b2bf 8854 d33f
00000100: 8a32 19c0 04ff 0340 483a e1be b289 f0bf
00000110: dd85 753e ccf6 983e 2c8d d13e dfca 873f
00000120: 9441 1bbf a44a 353f 562d 533f 6f5f 543e
00000130: 4b5f 043d ad08 183f 428b e2be 27aa f9be
00000140: d56a 163f fbd8 1dbf 8743 533f c3fb 9fbf
00000150: a28b 233f d604 7f3f ccc4 45bf aa57 5a3f
00000160: bd58 743e a23f 11be dac3 3d40 e4a3 1abe
00000170: bc5c 413f d416 823e 15fd 25c0 efda 07c0
00000180: ba3f 9b3f 31a0 31bf 8f2b 2cc0 c335 88bf
00000190: 61a1 f43b aeb0 a3bc dd1d 39bf e76a 013f
000001a0: c7e2 4bbf 9cac a0bf 8d4c 493f 1c5c cdbe
000001b0: 2783 353f 67ac fb3f ed79 153c 9ba0 86bf
000001c0: 5a57 0b3f 0ccb b2be de11 fd3f 0c1c 0a40
000001d0: 185c 4a3d 0eeb ea3f a488 443f 9aa3 11be
000001e0: 2f81 a33e 3073 91bf 1433 3b3f f0c4 f63e
000001f0: d451 5d3f ee3c 523f f802 66bf 5f64 38be
00000200: 620f 12be e2e3 c03e a1e9 9fbe 8d0c 57c0
00000210: 527f 703f c56c 323f 8455 e0bf 0b9a a0bf
00000220: d2fa 20bf 582c cbbf cd87 bdbf fab5 3ebf
00000230: 052f 623c 25dd 6ebe 6815 42be 2a1e 67bf
00000240: 9bbb 83bf cf3b c03e 58da 35bf c232 16bd
00000250: 9301 28be 7437 9e3f 5309 603e 5340 f13f
00000260: 6524 6d3f 3cec bbbd 958a c63e b5b8 e2be
00000270: 5128 363e 24e0 54be 5570 35bf 36b2 603f
00000280: d1e5 09c0 6abb ef3d 479a b63f c977 533f
00000290: 1a4f 8a3e 46dc 473f fe37 b6be f01c 8a3f
000002a0: 7700 7b3f 79b7 16be f82d 293f fbe6 bd3f
000002b0: 7afe 903f a6b5 8e3e cb92 e53c d5e6 813f
000002c0: faf6 0b40 4a58 bfbe e02a 08bf 2691 de3e
000002d0: 85d0 883f d87d e23e 8276 cb3f c946 a0bf
000002e0: af04 c33f b4a2 ddbf 2993 1bbf 9101 30bf
000002f0: 6678 6ec0 8fc9 373f c3fc 03c0 133c b43f
00000300: 5958 33bd 9326 343f 3683 8fbd 1d9c 6f3e
00000310: 84da 6c3f e84b 0d3f 0e43 703f 20a6 823e
00000320: 04bc dfbf 054f 1e40 feff 5d3e cd2b 5fbf
00000330: c85b 83bf 2bd9 4cbe 05fd dbbd 71ae 93bf
-1.1528305 0.14074959 -0.27686232 -0.28745338 1.4122332 1.4032404 1.3745605 -0.017806495
-1.3590013 -1.5309792 -0.24419154 0.6583007 -0.52601236 -0.3421189 -0.30579895 -0.10520959
0.49434334 -0.6811998 -0.079412125 -0.25993562 0.02971052 -0.06634084 0.44868982 -0.08201649
-1.1091151 0.016606688 -1.1927348 -1.4915974 -0.39642036 0.5467574 -0.25443545 0.30593413
0.2786803 -0.8407087 1.434119 -1.4996916 1.5985991 -0.5216819 -0.98910064 -1.2487572
-1.8302364 1.557427 -0.5291179 1.5603415 -0.078421496 -0.42259037 -0.6308836 0.5863388
-0.64207023 -0.08164932 0.09947758 -0.893493 -0.26497045 0.9003886 0.77162945 -1.5847924
-0.7201475 -0.48626974 1.7880259 -2.201143 -1.155364 -0.44871217 -1.3966702 1.6510172
-2.3937097 2.06244 -0.43989778 -1.8792021 0.23976846 0.2987579 0.40928018 1.0608786
-0.6064694 0.7081702 0.8249105 0.2073953 0.03231744 0.5938824 -0.4424687 -0.48762628
0.5875676 -0.6165921 0.82524914 -1.2498707 0.6388494 0.99616754 -0.77253413 0.85290015
0.23861976 -0.1418443 2.9650788 -0.15101582 0.75532126 0.2540804 -2.593572 -2.1227376
1.2128823 -0.6938506 -2.6901586 -1.0641407 0.007465527 -0.019981708 -0.7231119 0.50553745
-0.7964291 -1.2552676 0.7863243 -0.40109336 0.7090325 1.9661988 0.009123308 -1.0517763
0.5443016 -0.34920537 1.9771078 2.1579618 0.049404234 1.8352983 0.76771 -0.14222565
0.31934497 -1.1363277 0.73124814 0.48197126 0.86452985 0.8212422 -0.8984828 -0.18007039
-0.1426368 0.3767386 -0.31232932 -3.360141 0.93944275 0.6969722 -1.7526097 -1.254701
-0.6288272 -1.5872908 -1.4807068 -0.74496424 0.013805156 -0.23326547 -0.18953478 -0.902804
-1.0291628 0.3754563 -0.7103629 -0.0366695 -0.1640685 1.2360673 0.21878557 1.8847755
0.9263366 -0.091759175 0.38777605 -0.44281545 0.17788817 -0.20788628 -0.7087453 0.8777193
-2.1546519 0.11705668 1.4265832 0.8260465 0.27013475 0.78070486 -0.35589594 1.0790081
0.98047584 -0.14718427 0.6608577 1.4836115 1.132766 0.27872962 0.028024098 1.0148569
2.1869493 -0.37372047 -0.5319042 0.43470114 1.0688635 0.44236636 1.5895541 -1.2521602
1.5235804 -1.7315278 -0.60771424 -0.6875239 -3.7260985 0.7179193 -2.0623024 1.4080833
-0.043785427 0.7037136 -0.070074484 0.23399396 0.9252093 0.5519395 0.9385232 0.25517368
-1.7479253 2.473573 0.21679685 -0.8717621 -1.0262384 -0.20004718 -0.10741619 -1.153761

oGRU.weight_ih_l0 f4 [96, 4]
00000000: 2131 8c3d 5a2d 813f fcb9 d03e d694 173f
00000010: 1f2d f7be 8622 503f 4666 d8be d25a 39bf
00000020: 771c 1dbf b879 943e 4156 b9be f9cb 85bf
00000030: fe0a fe3d 5d22 b0bd bdf7 5abe 5da4 27bf
00000040: 0f50 14c0 56cb b33f 5826 133f 0509 20bc
00000050: 0f5e 453f 3182 123f d9e1 253e ade6 bdbd
00000060: 0f5b c63e ee35 12bf 13e0 8bbe dae2 7cbf
00000070: 5f0d a8be b1b5 8dbf e3fa f7bc da7f d7bd
00000080: 3550 803e a92d 9a3e f2a5 d93e 7137 f33e
00000090: 2d50 cdbf cf0a 56be 09a1 e2be 477a 9ebf
000000a0: 9544 b6bf 0354 62bf c9f1 9cbe 6bdb bd3b
000000b0: b0b2 6d3e b5f1 e8bd df94 dfbe e077 89bf
000000c0: 6508 4f3c ca1d 09bf 8fc9 ef3d 6d47 3cbf
000000d0: cb5d ef3e a647 bd3e 2f67 3e3e 6562 023f
000000e0: cb68 ea3e 8852 233f b1ee 88bf 20d6 273f
000000f0: 1f98 13bf a514 133f df29 003f a8e6 73be
00000100: 82a2 eebd 85fa 053e 2dbe 873f 3561 263e
00000110: 6dbc 01bf 19e2 bb3f bffd a83c 19a9 0bbf
00000120: e10a a3bd 4660 fa3e 9a19 c6be f209 34bf
00000130: ad7c b1bd 0a97 78be 00c9 8abf 0f6c 0040
00000140: 0a12 9c3f 2c40 56bf 5fe2 573f fa7d 2f3e
00000150: 618b 07bf a3ce 893e b1e7 233e e6fb 54bf
00000160: a150 0fbe 3ef6 633e a59d 29bf 1a6c c33d
00000170: aa1e cabf fe67 62bf 3f3e bcbd 506a 583e
00000180: 70cc f2be 41ac 3bbf 83f5 a2bf a320 a7be
00000190: c0e7 bd3f f015 8e3c f2d1 a73d d225 cabe
000001a0: a392 283e ee98 a8bd fbb2 833e 9e88 4a3e
000001b0: fbd2 1b3f ed54 82be 78bd e2bd 227b d83d
000001c0: 4aaa 38be 4575 52be 1447 8cbd 7804 583f
000001d0: 4dca 313f 5e73 bf3d ec30 0f3f 0fed 333f
000001e0: 27ae ccbe 9842 4e3e d51d 1b3f be0f e8bf
000001f0: 97bb 8abe 81f5 713f eea3 f63e 6734 38bf
00000200: 1e17 28bf 93b3 3f3e 00da b43f c24a 3e3f
00000210: fb6b 50bf b604 2b3f 8f00 96be 2a8b 08bf
00000220: 3587 163f 0fdb 3ebf 461d 3a3f d004 433f
00000230: f7ab 80bd b7c8 563e d30d bc3e 449a a0bd
00000240: 11db 65bf b4c2 b03e 8197 233e 3c62 96be
00000250: 6357 973e 2cc5 653e 7226 cbbd 99d2 11be
00000260: db95 e4bc cf9b 69be 0922 e6be 9dda 7dbd
00000270: 7025 2dbf 1579 233f a533 283e 8878 a33d
00000280: 828e 60bf 4f15 d0be 262d 7c3f 49ff 2bbf
00000290: 2cf4 3dbf be03 643d d09a 573f 17de 94be
000002a0: 6e9f 53bc 24e1 233c ba5d 69bf 78c7 e43e
000002b0: 9005 f33e fe13 b3be b424 283e 74ec be3c
000002c0: 3205 a93e b04e adbe b5ed 4abf 1015 a3bf
000002d0: e38d 69be 5a33 2dbf be2b 65bf 2261 963f
000002e0: b6d6 b1bd 7cbf d3bd ad24 813e 2c4d acbf
000002f0: f807 223f b944 3abf c50a 223f 6155 35bd
00000300: 6169 833e dfac 9b3f 902f 0fbf d1b5 19be
00000310: 22dd 5abf ee3f 053e 13ef c6be 3e01 9a3e
00000320: 3d4c b6bf 79a8 48be 888f 8abe e209 42bf
00000330: 39b8 16bf ea82 7b3f cbf9 593e 97ec 6f3f
00000340: 2efa 393f 6f89 9cbe 444e 1ebe 012a 7c3f
00000350: 52e6 883d 5b40 bbbe 33ce 023e eb2f 34bf
00000360: d2fa 9cbe 3986 9e3f e175 c53f d7a3 813f
00000370: 2964 1cbe 195d 54be 8786 53bf 221a d33d
00000380: a2bb d13e c7a5 543f 1c9e 5a3f 0c79 e23e
00000390: c297 703e 6ffa a3bc 60d4 843f fd92 933f
000003a0: f661 97be da98 473e 1eff 2ebf 7d97 8ebe
000003b0: 08eb cbbe 19ab d43e aca0 9b3e 541a 3fbf
000003c0: f4ff 4c3e c283 08bd a972 e2bd f63e 2e3f
000003d0: b9d0 1d3e e640 b8be 680b 3fbe 00c5 6cbe
000003e0: 41e0 8dbf e82c 63bf 0df8 543e b074 013f
000003f0: 696b 173f b4b2 db3e 6e03 90bf a052 a9bf
0.06845308 1.0091965 0.40766895 0.5921148 -0.48276612 0.8130268 -0.42265528 -0.72404206
-0.6137156 0.28999114 -0.3619862 -1.0452873 0.1240444 -0.08600304 -0.21383567 -0.65485173
-2.3173864 1.4046428 0.5748038 -0.009767775 0.7709665 0.57229906 0.16199435 -0.092725135
0.38741347 -0.5711354 -0.27319393 -0.9878365 -0.328227 -1.1071073 -0.030271 -0.105224326
0.25061193 0.3011296 0.4250942 0.47503236 -1.6040093 -0.2090256 -0.44263485 -1.2381066
-1.423968 -0.8840944 -0.30653217 0.005793979 0.23212695 -0.11374227 -0.43668267 -1.0739708
0.012636279 -0.5356108 0.11708366 -0.7354649 0.46751246 0.36968726 0.18594049 0.5093139
0.45783076 0.6379781 -1.0697843 0.65561104 -0.57653993 0.57453376 0.5006389 -0.23818457
-0.1165209 0.13083847 1.0604912 0.16248019 -0.5067814 1.4678375 0.020628808 -0.545549
-0.07961059 0.48901576 -0.38691407 -0.70327675 -0.08666358 -0.24276367 -1.084259 2.0065954
1.2193005 -0.8369167 0.8432979 0.171379 -0.5294705 0.26915464 0.16006352 -0.83196867
-0.13995601 0.22261903 -0.6625617 0.09542103 -1.5790608 -0.8843993 -0.0919156 0.21134305
-0.47421598 -0.73309714 -1.2731174 -0.32642087 1.483635 0.017344445 0.08194341 -0.3948198
0.16462187 -0.08232294 0.2572249 0.19778678 0.60868806 -0.25455418 -0.110712945 0.10570361
-0.1803371 -0.20552547 -0.068494946 0.8438182 0.6944931 0.093481764 0.55934024 0.702836
-0.39976618 0.20142591 0.60592395 -1.8129804 -0.27096245 0.94515234 0.48171943 -0.7195496
-0.65660274 0.18720846 1.4129028 0.7433282 -0.81414765 0.66804063 -0.292973 -0.5333735
0.5880006 -0.74553007 0.7270092 0.7617922 -0.062828 0.20975004 0.36729297 -0.07841924
-0.89787394 0.34523547 0.15975763 -0.29371822 0.29558858 0.22438496 -0.09919442 -0.14240493
-0.027903488 -0.22813343 -0.44947842 -0.061976064 -0.6763525 0.6385663 0.16425951 0.07981974
-0.8771745 -0.40641257 0.9850639 -0.6718641 -0.742007 0.05566763 0.842206 -0.2907569
-0.012916429 0.010002408 -0.9115864 0.44683433 0.4746518 -0.3497619 0.16420251 0.023306109
0.33011776 -0.33849096 -0.7926896 -1.2740803 -0.22808032 -0.6765648 -0.8951987 1.1748393
-0.08683531 -0.10339257 0.25223294 -1.3461051 0.6329341 -0.7276111 0.63297683 -0.044270877
0.25666335 1.2162131 -0.5593195 -0.15010764 -0.8549367 0.13012668 -0.38854274 0.30079073
-1.4242016 -0.19595517 -0.2706263 -0.7579633 -0.5887485 0.98246634 0.21286695 0.9372038
0.7264737 -0.30573604 -0.15459543 0.9850159 0.06684555 -0.36572537 0.12773971 -0.70385617
-0.3066011 1.2384712 1.5426599 1.0128125 -0.15272583 -0.20738639 -0.8262715 0.10307719
0.40963465 0.83065456 0.85397506 0.44232976 0.23495391 -0.020016877 1.0377312 1.1529232
-0.29566926 0.19491902 -0.6835803 -0.2784995 -0.39827752 0.41536787 0.3039602 -0.7464955
0.20019513 -0.03332878 -0.11057026 0.6806482 0.15411653 -0.35987014 -0.18656695 -0.23122025
-1.1084062 -0.88740396 0.20797749 0.50568676 0.5914827 0.42909777 -1.1251047 -1.322834

oGRU.weight_hh_l0 f4 [96, 32]
00000000: daac 753d 0dfa 55bf 2269 9dbd 229c 153f
00000010: 5407 02bf 6284 3e3f 38dd 4d3f 3892 e23c
00000020: 6ae8 223d 2ed5 293e 78bd dbbe ccd9 853f
00000030: 04dc 143f 306d 273f 9151 ed3e 7110 b0bc
00000040: 32ef 283f 9cbf 82bf 21e3 cfbe 7112 b0be
00000050: c1d8 13bf 7732 4a3e a47a 413f af64 52bf
00000060: 45bb 543f 9672 0fbf c95f babd 3f4f aabe
00000070: 9f0a 793f f5c9 31bf f578 acbf 0234 593e
00000080: c33e 9f3e 5bba ff3e 7ce1 e7be df37 38bf
00000090: d825 b83d 9434 193e 1d1a 063f c79a 1a3e
000000a0: 73de 013f f7a6 8fbf 6d6c 913f 86cd 6c3f
000000b0: dc69 7b3e a097 683b cc2d 2dbf fa3b 8dbe
000000c0: fe23 dabe 96e3 54be 840f 303f 6f00 91be
000000d0: 9b49 a23d c531 8dbf 426f 003e a979 9b3f
000000e0: 60b4 1d3e 6164 b83e c899 423f fa3b 323f
000000f0: 646a 343e 824a bdbc cef8 6f3f 9892 2fbf
00000100: d7da 173f 341c febe c628 853f 1953 ca3e
00000110: 8a5d 49bf 129c 53be ce85 88bf d5e2 eb3e
00000120: d9fa 26bf 6402 efbe 8667 17bf 2f49 813e
00000130: 61d7 c53f d2a8 99bf 299d 903d 88fe 8ebf
00000140: 5bf5 cabd d663 0abd 256d 693e 79d2 23be
00000150: 0ab3 00bf 2ae1 093f d4d2 6abf b1a6 833e
00000160: 0e27 d7be 5cd5 2b3e b1d8 bebe 0d6d 19bf
00000170: 46c8 0f3f 00d7 f03e f199 863f e228 e5bc
00000180: 63a9 b73d 1a5d 733f 240e 633f 598d 6a3f
00000190: bce5 4abf 09c7 29be 9acd 01bf 5d7a 03bf
000001a0: 8abc 043f 7c8d 6fbf 8b48 153f 8e2d 613d
000001b0: afd4 fc3e 21de 37bf df30 9d3e db8d 0ebf
000001c0: 64f8 55be 0364 623f c081 b33e 9819 47bd
000001d0: 2994 a33e c9e2 813f b000 cc3e 27cb 35bf
000001e0: fa41 20bf 6e96 8cbe 63e5 23be de72 553f
000001f0: c866 bbbe 1996 543e 4458 f9be 44f5 943e
00000200: a33b 123e 6fca d6be 21c8 80be 1d45 843e
00000210: 13ce 5e3d 3d52 853f 221e b23e 907e ab3d
00000220: 9cec f6bd 459d 9dbe 656e 1dbf 5998 dbbc
00000230: e882 62be 3ada 6c3e c643 10bf 897b 65bf
00000240: a9f5 923e 91c6 693e e560 bcbe ca19 bb3d
00000250: d11e 023f bdaa abbe 14f4 a63f d5cd 1a3f
00000260: 1e2e 063f 65d4 163e b94b 0a3f 4f98 003f
00000270: a92d 0bbf a4d1 99be ff26 de3d de4d 00bf
00000280: c615 46bf d67c 433f 9424 6bbf f27f 023e
00000290: 0461 c53e 18a4 1e3f bb35 313f a784 8b3d
000002a0: ed12 70bf 4272 dfbc 0962 353f 9491 a5bf
000002b0: 4e4f ca3e 3ae8 4dbd 6e72 a5bd 9a39 60ba
000002c0: c1b6 fbbe a959 4ebc 36e7 2f3f 5cb2 a5bd
000002d0: f9d7 953e cd5c 883f 5918 143f 4cee 4dbf
000002e0: 5529 733e f86c 4b3e 8339 acbe 97c6 da3d
000002f0: ee81 03be 5f2c 72be aaf0 8d3f bb81 003e
00000300: 9e9c 62be f6d6 173f 8c1a a3be 08e4 e4be
00000310: 58db 0d3f 7ff8 13bf d6ee 10be d035 63bf
00000320: 4b2e 253d ac17 963d c44f 8d3e 1497 25bf
00000330: ed63 383f 5f6d 41be cae7 d6be c0ee 963b
00000340: 94d0 9a3e 89fe 29bf 44ee 2f3f f10e 033f
00000350: 7c6c 98be 35cd 22bc 8116 9cbf efae 60bf
00000360: 197a 95be 821f aabd 1118 08bf de86 43bf
00000370: 61b1 0a3f bad6 9ebc ca27 9c3f 96d8 813f
00000380: f004 b03e be53 ac3f aa48 dbbe e14f 38bf
00000390: 00e7 9c3d 0684 f9be 9b67 3a3f eaf1 063f
000003a0: f06b 1a3f 029a 8abf b035 293f 6ed9 873f
000003b0: cb33 0fbe 97fb e3be 7ad4 6c3f 6498 bb3f
000003c0: 7e66 a03f 1cc6 363f 3847 8c3f 25bb 7a3f
000003d0: 35cf 0ebf 07ea 35bf f25d adbe 0da2 a13f
000003e0: 6338 2dbe 2603 053e 12d6 15bf 26e0 6fbe
000003f0: ecad b7be a786 d83e 2124 023f 7714 34bf
0.059979297 -0.8358467 -0.07686068 0.58441365 -0.5079243 0.7442075 0.8041568 0.027657613
0.03977243 0.16585228 -0.4291799 1.0457091 0.5814822 0.6540098 0.46351293 -0.021492215
0.65989983 -1.0214725 -0.40602973 -0.3438907 -0.57752615 0.19745813 0.7557776 -0.8218488
0.8309825 -0.5603422 -0.09100301 -0.33263585 0.9728183 -0.69448787 -1.3474413 0.21211246
0.3110257 0.49946865 -0.45289218 -0.7196025 0.08991593 0.14961463 0.52383596 0.15098105
0.50730056 -1.1222829 1.1361214 0.92501104 0.24552101 0.0035490766 -0.67648005 -0.2758482
-0.42605585 -0.20789942 0.68773675 -0.28320643 0.079241954 -1.1030813 0.12542441 1.2146503
0.15400839 0.36014083 0.760159 0.69622767 0.1761871 -0.023106817 0.9373902 -0.6858306
0.593183 -0.49630892 1.0403068 0.39516523 -0.78658354 -0.20665005 -1.0665834 0.46071497
-0.65226513 -0.4668151 -0.5914234 0.25251147 1.5456353 -1.2004645 0.07061226 -1.1171427
-0.09910079 -0.033786617 0.22795542 -0.15998258 -0.5027319 0.538592 -0.9172795 0.25713113
-0.42021984 0.16780609 -0.37274697 -0.59932023 0.5616497 0.47039032 1.0515729 -0.027973596
0.08967855 0.95063937 0.8869345 0.9162193 -0.79256797 -0.16579832 -0.5070435 -0.51358587
0.5185019 -0.93575263 0.58313817 0.054975085 0.49381015 -0.71823317 0.30701348 -0.55685204
-0.20895535 0.88433856 0.3505993 -0.048608392 0.31948975 1.0147334 0.39844275 -0.7101311
-0.6260067 -0.2745852 -0.16005473 0.833784 -0.36601853 0.20760383 -0.48700154 0.29093373
0.14280562 -0.4195132 -0.25152686 0.2583398 0.054395746 1.0415722 0.34788615 0.08373749
-0.120568484 -0.3078405 -0.61496574 -0.026806043 -0.2212025 0.23130122 -0.56353414 -0.89641625
0.2870305 0.22829653 -0.36792675 0.09135778 0.5082827 -0.335287 1.3043237 0.60470325
0.5241412 0.1472946 0.54021794 0.50232404 -0.54366547 -0.30042756 0.10847282 -0.50118816
-0.77376974 0.7636236 -0.9185269 0.1274412 0.3855058 0.6196914 0.6922261 0.06812411
-0.9377888 -0.027276162 0.70852715 -1.2935052 0.3951363 -0.050270297 -0.08078466 -0.0008553505
-0.49162868 -0.012594619 0.68712175 -0.0809066 0.29266337 1.065332 0.5784965 -0.8044174
0.23746236 0.19865787 -0.33637628 0.10682409 -0.12842533 -0.23649739 1.108907 0.12549488
-0.22130057 0.5931238 -0.3185619 -0.44705224 0.55412817 -0.5780105 -0.14153609 -0.88753986
0.04032735 0.07328734 0.2759992 -0.6468365 0.72027475 -0.18889378 -0.41973716 0.004606098
0.30237257 -0.66404015 0.6872294 0.51194674 -0.29770267 -0.0099366205 -1.2194368 -0.8776693
-0.29194716 -0.08306791 -0.5316172 -0.76377666 0.5417691 -0.019389499 1.2199643 1.0144222
0.34378767 1.3463056 -0.42828876 -0.71996886 0.07661247 -0.48733538 0.7281434 0.5271288
0.6032095 -1.082825 0.66097546 1.0613229 -0.13984601 -0.44527885 0.92511714 1.4655881
1.2531278 0.7139604 1.0959234 0.9794181 -0.5578492 -0.7106022 -0.33860737 1.2627579
-0.16916041 0.12989482 -0.5852977 -0.2342535 -0.3587488 0.42290232 0.5083638 -0.70343727

oGRU.bias_ih_l0 f4 [96]
00000000: f604 3dbf c983 8fbf ef93 d4be 9903 ad3e
00000010: c259 c5be 2569 92be f1b7 55bd e743 25be
00000020: 675b 64bf 8b89 28be 3dcb 2fbf cfc1 f8bd
00000030: fdc4 05be c959 1dbd 1581 943e bc39 91bf
00000040: 1d76 ad3e 1888 55bf 8a5d f43d 416e f4be
00000050: 1a92 40be 5662 35bc c630 cbbd fabc e3be
00000060: 58b7 0dbf dada 88be 6b45 8abe 98cd 6ebf
00000070: 9b8b e43e a664 75bf 737f 30bf 3a90 63be
00000080: 3133 70bc 9e76 d7be 1b27 b7bd 3d4f f0be
00000090: 0765 b53e a10c 81bf 20df 033e 1caa e53e
000000a0: c258 8a3d 5a4d b0bf 84f6 e83c 0d01 55bf
000000b0: 6cff bf3e 88ea 0fbf c2a3 e0bc 5e54 16bf
000000c0: d92d 80bf b14c c8be e046 fd3d fc9f 5bbe
000000d0: 2c67 963e 779b 4ebe 3d33 41bd 2083 d63e
000000e0: 0364 96bf 5a3e 0a3e 5828 1ebf 1505 c6bc
000000f0: d328 463f a718 73bf 23d9 8a3d 141c 73bd
00000100: 6a95 243e 6c90 e93d b9ba d1bd 577d 533e
00000110: faa7 ac3d 93b8 813e 8e6a acbc d308 353e
00000120: eddb bfbb 8340 09bc 8e84 18be 6110 bbbd
00000130: 304a 793e 7512 f3bd a5d9 913e 5628 02bd
00000140: 6a4c 2a3c d5ea 8dbe fca9 c9bc f41e 33bd
00000150: 5cd5 0dbe 797b 7fbe 16f9 c43e 4806 24be
00000160: 0ba5 53bc 4007 9dbd 43af 293e 5f45 eabd
00000170: bfd4 2cbd b8de 34be 5722 a13e eb89 a53c
-0.73835695 -1.1212093 -0.41519114 0.33791807 -0.38545042 -0.28595844 -0.052177373 -0.16139184
-0.8920197 -0.16458718 -0.6866949 -0.12146341 -0.13063426 -0.038415704 0.29004732 -1.1345744
0.33879176 -0.8341079 0.11931904 -0.47740367 -0.18805733 -0.011070808 -0.09921412 -0.44480115
-0.55357885 -0.2672947 -0.27006087 -0.9328246 0.4463776 -0.958567 -0.6894447 -0.22222987
-0.0146606425 -0.42082685 -0.08943006 -0.46935454 0.3542864 -1.0081979 0.12878084 0.44856346
0.067552105 -1.3773606 0.02843786 -0.8320473 0.3749956 -0.5621724 -0.027421836 -0.58722484
-1.0013992 -0.3912101 0.12367034 -0.21447748 0.2937559 -0.20176493 -0.047168005 0.41896915
-1.1749271 0.13500348 -0.6178031 -0.024172345 0.7740604 -0.9495949 0.06779697 -0.05935295
0.16072622 0.114044994 -0.10240693 0.20653282 0.084304765 0.2533613 -0.021046903 0.17679147
-0.0058550746 -0.008377197 -0.14894316 -0.091339834 0.24344707 -0.11868755 0.28486362 -0.03177675
0.010394195 -0.27718225 -0.024617188 -0.04373069 -0.13850921 -0.24949445 0.38471287 -0.16018021
-0.012917767 -0.076673985 0.16570763 -0.11439013 -0.042195078 -0.17663085 0.31471512 0.020207366

oGRU.bias_hh_l0 f4 [96]
00000000: 7f05 1bbf 8deb 9abf 4112 1abf 8b61 c03e
00000010: de9e a3be 3da9 eabe b844 673d 94a8 35be
00000020: fbc1 10bf ce02 283d 3ce6 46bf b9e3 6abe
00000030: 55aa 4cbe 2608 053e 06be e13e 474c 97bf
00000040: c50e 183f ed40 07bf 4e0d e03c 2710 c7be
00000050: 286e 5cbe 18b6 99be d0c9 2fbe 3a65 abbe
00000060: 24c7 8fbe c977 57bd a130 31be 346b 8abf
00000070: 0b72 0f3f c625 57bf c395 11bf 5a80 10be
00000080: c890 02be 33cb 30bf 8be5 9f3d 99ba dabe
00000090: acbb 9b3e 83b9 80bf 2b6a 863e 3f4c 8b3e
000000a0: 5309 6d3e 78cd a5bf 546b 9b3e d6b1 7ebf
000000b0: 7da1 3f3e a040 2abf 0910 afbe 565e 21bf
000000c0: 5e4c 60bf a38d bdbe 73d0 673e a43f edbe
000000d0: ffcc 8e3e b1fd bdbd 4852 eb3d 6814 323e
000000e0: 7e9c 9abf 2131 88bd 7751 f8be 12f0 993d
000000f0: 9f8e 843f 0575 65bf 2f29 c33c c0fc 6bbe
00000100: e3ae 143e 9e81 49be c211 dabd 4d5c cc3d
00000110: b0a2 2e3c 3da1 8dbe a5c8 a63d 7dd6 dfbc
00000120: 76e5 7c3e 44b7 c53e cc9e df3d 1f04 433d
00000130: 0b9e a03e 507b 00be 0e53 a73e ee6b e8bb
00000140: 43f8 a33e cd27 bdbe c304 e0bd 8baa 7e3e
00000150: 3dfa 82bc 2617 b33d c514 853e a0c5 b1bd
00000160: ef16 a53e afab 68be f644 073e a0b6 353e
00000170: 41dd 553e 6ec9 73bd b4d5 82be 1a37 02be
-0.6055526 -1.2103134 -0.60184103 0.3757442 -0.31957144 -0.45832244 0.05646202 -0.17740089
-0.5654599 0.0410183 -0.7769506 -0.22938432 -0.19986852 0.1299139 0.4409029 -1.1820153
0.59397537 -0.52833444 0.027350094 -0.3887951 -0.21526396 -0.3002174 -0.17166829 -0.33475667
-0.2808162 -0.05260447 -0.17303707 -1.0813966 0.5603339 -0.8404201 -0.56869143 -0.14111462
-0.12750542 -0.6906006 0.07807454 -0.42720488 0.3041662 -1.0056614 0.26252875 0.2720661
0.23148088 -1.2953329 0.30355322 -0.99490106 0.18713947 -0.6650486 -0.3419192 -0.6303457
-0.8761653 -0.37022123 0.22638111 -0.46337616 0.27890775 -0.092769034 0.11490303 0.17390597
-1.2079008 -0.066499956 -0.48499653 0.07516493 1.0356025 -0.8963168 0.023823349 -0.23045635
0.14519839 -0.19678351 -0.10647918 0.099785425 0.010658905 -0.27662078 0.08143739 -0.027323956
0.24696907 0.38616383 0.1091896 0.047611352 0.31370577 -0.1254704 0.32680553 -0.0070929443
0.32025346 -0.36944428 -0.10938408 0.24869744 -0.015988464 0.087446496 0.25992408 -0.08680272
0.3224406 -0.22721742 0.132099 0.17745447 0.20885183 -0.05951827 -0.25553668 -0.12716332

oGRU.weight_ih_l0_reverse f4 [96, 4]
00000000: 3a9e f03e c76f 713e 62c4 19bf a59e 6fbf
00000010: 4f77 8f3f 4125 a4bd e06a b2be d492 52be
00000020: 4791 23bf 7a3f 6d3f b867 c73e ff60 df3e
00000030: a3a7 323f 5d6a 883e e8ef 95be c160 623f
00000040: d159 543f f29d 5f3f c635 23be 5926 2d3f
00000050: ea04 bf3f 5d78 2d3e 8cc9 7d3f d2c2 60bf
00000060: c254 123f 6efc 80bf 5ccb 0040 ddab 283e
00000070: 7130 61bf c44b c83f 5529 963f 0dbd 823e
00000080: 0ccd af3f ffe4 4cbf 1b31 b1bd 5d1f 9cbe
00000090: c4af 803f 6e44 763e 62d2 193f 8a47 33be
000000a0: 12a7 96be 3cc3 0abf f0a3 4abf 6134 d8bf
000000b0: 99f5 93be 3e41 e03d 64b0 af3e 09c3 e13f
000000c0: cfb2 153f c11a fcbe bdcf 03bf 8c27 cd3d
000000d0: 4a2e 683f a9d0 a7bf 7ff2 853f 7b06 243f
000000e0: 8eb7 563f db04 063f d4f7 3fbf 3f30 223e
000000f0: a061 1d3f aaa9 453f 212c f03e d88b 733f
00000100: 38af 0abe 16c6 a33e 4eb7 b43e 7d0b b1be
00000110: 4413 573b 0095 1f3e 7bad cb3e db6d 25bf
00000120: 1b82 023f e2bf 0b3f ea19 1b3f 4d83 44bf
00000130: fd0c 863f 2298 223f ed94 f9be 65d8 a0bf
00000140: 1cdb 4abe c7c1 8d3f fc10 203c 14be b13e
00000150: c825 84be c15e 013f 51ac 563d 4894 583f
00000160: ccaa a9bd ccb6 843d 375b 863d a68e 83bf
00000170: 7a96 a2be 5210 1a3e 21ce 32bf 11a7 84bf
00000180: 0afb d23d 93de 2e3e 9db9 04bf 14c8 19bf
00000190: dcdb adbd 7a7e 2ebf 75c2 b33e 7a47 2b3f
000001a0: b01d d23e f102 5abf d2b6 02bf fe70 9f3e
000001b0: 992f 48bf 90c8 a23f c900 b5be 068f 1b3f
000001c0: 7177 f9be 236f 423f c22d 733e b6cc e03f
000001d0: e018 bc3e b485 17be 508d 20bf 988f b0bf
000001e0: 7847 653e 7d9d 16bf 5862 c33e 54ee cd3d
000001f0: 9aec 433f bfff 19bf 1ce8 173f 381e ccbd
00000200: 1da7 eb3e de66 88be 1c10 3f3d 6d05 a5be
00000210: 7513 5c3e 5b5e 7b3e a5ab 0b3d 6a00 9a3f
00000220: 173f debe 8fa8 223e c66f 2d3f 76fc 0cbe
00000230: ed98 e3be 88d0 01bf 867d 113e 225a 953f
00000240: 9085 123f 7073 fabe 24b7 213f 1c10 643d
00000250: 79bb 07bc a5bf a03e e944 6d3f 1dc9 ab3b
00000260: 1996 ddbc c227 753e ff08 86bf a525 6ebe
00000270: 5f7f 0f3f 8746 10be daf7 1abf 51f3 91bf
00000280: 7bf9 683f 8dc8 9c3c 15bd 613f de1c 9f3f
00000290: bb53 993e 615f 75bf 9046 fabe 0195 1a3f
000002a0: 2620 8a3f 63ba a3bf 1ae7 52be 9c41 5bbf
000002b0: 8910 01bf 96db 213f 5950 153f 9eac e73e
000002c0: 01d2 d43f 6d6a c9be f738 973f d748 83bf
000002d0: 3459 3a3e a35e f63e c61f 2c3f e708 a33e
000002e0: 0d65 953f 8191 afbf fdba 58bf 9a9c 39bf
000002f0: 41f4 7a3c d0ca 69be 4f34 e03c b60e 8d3e
00000300: b054 61be 1626 d2bd 55d6 363f 65ae 4fbe
00000310: 6a92 543f c5f0 a2bf 7e09 76be 045a 523e
00000320: 4d65 67bd b824 8b3e 30e5 2fbd 5362 e2be
00000330: 42ce 3d3e e88d 6bbf b6ab ccbe 39fe d63e
00000340: 20aa 343f 5348 9ebd eacf 8abe 3693 893c
00000350: a83c 123e 909a e1be 2add 4fbf 38ae 243f
00000360: 6b9e debe a712 0b3d ce3e 6f3f 09c1 593f
00000370: c6c6 ecbe 3277 07bf b967 2d3f bd84 39bf
00000380: cbb6 65be 5532 99bf 1d16 c2be 796b af3d
00000390: 3696 c4bd ee0c 82bf 436d 8f3e 7f13 9bbf
000003a0: 7805 ac3e 35e2 333f 819e d2be 60c7 1abe
000003b0: b1ae bf3e ae55 febe ccf8 913f 677e ee3e
000003c0: b8d0 75be 3122 283f 205d 9dbe 96d5 473f
000003d0: d5ba 103f 063f 19bf 693b 883f b96f 8f3f
000003e0: 8b14 05bf d531 b8be 9e71 11be 4129 023f
000003f0: bccb d6be fa2a 513f b93c f53d 7afb 1d3f
0.46995717 0.23577796 -0.6006528 -0.9360145 1.1208285 -0.08014918 -0.34847164 -0.20563823
-0.6389355 0.9267498 0.3894632 0.4362869 0.69787043 0.2664365 -0.29284596 0.88428885
0.8294955 0.8735038 -0.15938482 0.6763664 1.4923375 0.16940446 0.9913566 -0.8779727
0.5716058 -1.0077035 2.012412 0.1647181 -0.8796454 1.5648122 1.1731364 0.2553486
1.373445 -0.8003692 -0.08651944 -0.30492678 1.005364 0.24049541 0.60086644 -0.17507759
-0.2942434 -0.54204154 -0.791564 -1.6890985 -0.28898314 0.10949944 0.34314263 1.7637645
0.58475965 -0.49239162 -0.5148886 0.100173086 0.9069563 -1.3110553 1.0464629 0.6407239
0.8387383 0.5235116 -0.7498753 0.15838717 0.6147709 0.7721201 0.46908668 0.9513526
-0.13543403 0.31987065 0.352961 -0.34579077 0.003281788 0.15584183 0.39780793 -0.6462075
0.50979775 0.54589665 0.60586417 -0.7676285 1.0472714 0.63513386 -0.48746434 -1.2566038
-0.19810146 1.1074761 0.009769674 0.3471533 -0.25810075 0.5053521 0.052410427 0.8460126
-0.0828453 0.06480178 0.065603666 -1.0277908 -0.3175543 0.15045288 -0.6984578 -1.0363485
0.10301788 0.17077093 -0.51845723 -0.6007092 -0.084892005 -0.6816174 0.35109296 0.6690594
0.41038275 -0.8516074 -0.5106021 0.31140894 -0.7819763 1.2717457 -0.35352162 0.6076511
-0.4872394 0.7595083 0.23747924 1.7562473 0.36737728 -0.14797097 -0.62715626 -1.3793821
0.22390544 -0.5883406 0.38160968 0.10055223 0.765329 -0.6015586 0.59338546 -0.09966701
0.46025935 -0.2664098 0.046646222 -0.32230702 0.21491797 0.24547713 0.03409924 1.2031376
-0.4340751 0.15884613 0.6774868 -0.13768181 -0.4445261 -0.5070882 0.1420804 1.1668131
0.5723505 -0.48916197 0.63170075 0.055679426 -0.008284443 0.31396213 0.92683274 0.0052424804
-0.027049111 0.23940948 -1.0471495 -0.23256548 0.5605373 -0.14089404 -0.6053444 -1.1402379
0.91005677 0.019138599 0.8817914 1.2430685 0.29946694 -0.9584866 -0.4888196 0.6038361
1.0791061 -1.2791256 -0.20595971 -0.85646987 -0.50415856 0.63225687 0.58325726 0.45248884
1.6626588 -0.3933901 1.1814259 -1.0256604 0.18198091 0.48119077 0.6723598 0.3184273
1.1671463 -1.3716279 -0.8466032 -0.7250458 0.015317024 -0.22831273 0.027368693 0.27550286
-0.22004962 -0.102611706 0.71420795 -0.2028137 0.8303591 -1.2729727 -0.24027058 0.2054215
-0.056493092 0.27176452 -0.04294318 -0.4421564 0.18535712 -0.92013407 -0.39974755 0.41990831
0.7057209 -0.077286385 -0.2711175 0.016793828 0.14280951 -0.44063234 -0.81196845 0.64328337
-0.43480238 0.033953335 0.9345521 0.85060173 -0.46245402 -0.5291625 0.67736393 -0.7246817
-0.22433011 -1.1968485 -0.37907496 0.08565421 -0.09598963 -1.0160196 0.28013048 -1.2115325
0.33597922 0.7026704 -0.41136554 -0.15115118 0.37437966 -0.49674743 1.1404052 0.46580812
-0.24005401 0.6567717 -0.3073511 0.7806028 0.56535083 -0.5986179 1.064313 1.120597
-0.5198447 -0.3597552 -0.14203498 0.508442 -0.41952312 0.817062 0.119744726 0.6171185

oGRU.weight_hh_l0_reverse f4 [96, 32]
00000000: 8351 8f3e 42df 243f 608e 1d3f 0930 8a3d
00000010: 9a0e 3cbf eea0 34bf 7464 b8be d6b0 4a3f
00000020: 2215 1b3f 99c5 bcbd bef1 45bf 1af3 c83e
00000030: c365 53be 5bff 24bf 520f 9c3d 1ded 0cbf
00000040: 1832 99bd e2bb 64bf 6b5a 71bc f8de 303d
00000050: 394c 6dbd 5f80 123f ffd9 f0be 7b24 813f
00000060: 7b92 20bf 8e52 c8bc 88e4 8c3f f4ba 10bf
00000070: ea7c f7be f09a 923e d118 0bbe 679a e03e
00000080: 1941 183f db37 dbbe f889 e13e 3a13 f5bc
00000090: 2a5f 333e 6056 9f3f 92f0 98bf f7c9 96be
000000a0: a0b1 d7be 239f e23e c9d6 e83e d204 c03d
000000b0: 2266 b63f 7ef5 0b3e 2973 6abe 08e4 cabe
000000c0: 8dc9 873d 6d37 c03f c87c 963e b941 3f3e
000000d0: 73e6 4a3f 4d4c 623e a731 3dbe 040d 923f
000000e0: f3bf 473f 7e22 b13f 0f2c 24bf dafd f33e
000000f0: 348d 2abe 0c0f 9fbf 9e9b 9fbf b904 fb3e
00000100: 26b3 473f ba61 30bd ace9 9b3e 6c3a 853d
00000110: a331 45bd 0acb ca3e 7311 f5bf 410b 033f
00000120: 382e 943b 2886 7ebd 0514 3e3f c47f c5bf
00000130: 7dcd 53be 1e50 04bf 8eac 4fbe ec0e 23bf
00000140: 1053 4abf ff4f d0bd d979 033f 2d0f 59be
00000150: 1706 4c3f 58a8 3fbf 736c 9bbe fc2e 6c3e
00000160: 8920 d73e 5b38 273f 78e9 35bc 6a28 0a3f
00000170: cbe1 bf3e c02b 12bd 7508 45bf 35fc 823c
00000180: 7e3d 553f cccd 53bf d3ae 01bf df39 4d3e
00000190: 2cdc b4be 58f7 253f 7dcd 91bf 7ea9 733f
000001a0: b827 06be e83c 1abf 74a8 9cbd 590b 58bf
000001b0: 0a61 603e d7dc dabe 72c2 f8be e34c 8e3e
000001c0: 68b5 c4bd ab91 f03e bb15 a33f 6f70 debe
000001d0: 7a57 08be 6c95 c93c 3e70 243f 400d 833e
000001e0: 2441 e13e 94e5 21be 3662 c6bd 3140 963f
000001f0: cbbd 0dbe 4865 79bf bcb0 7bbf 6c49 523f
00000200: 4966 b53f f0fa 05be 0b48 773d 9e6d ce3f
00000210: 6e7a e9be b6c1 283f 11f6 58bf 100c 55be
00000220: 4191 283f 9f23 f4be 533f 89bf 514d d5bf
00000230: 88b0 823e 5468 62bf 13f8 cbbe 7c3e 143f
00000240: 472f adbe bf9c 88bc 7753 623f 8d11 ba3d
00000250: 2921 553f 7646 99be 62e2 2ebf 0bdf aabf
00000260: cdcd 073f c3ff afbd 87d1 3f3f 3211 a93e
00000270: 6000 70be f86e 34bc 2628 0fbe 49de 433f
00000280: 5442 9abe 2a23 9d3f 2c06 a93f da68 13bf
00000290: 688c 3c3c 43df 883d 63f4 94bf e3a3 313f
000002a0: 6496 d8be c3f5 7cbe 609e acbe 10f8 48be
000002b0: e4e3 40bf 937d 173f 54f9 bf3e c56c 22bf
000002c0: 89ee 32bf b659 63bf 8f26 0bbf bab1 41bf
000002d0: d22f 94be 4fa4 2e3f dec2 b8bc c93f 4ebf
000002e0: 0a64 ee3d 577a 5a3f 74fd 4fbe e7a6 94bf
000002f0: b800 6cbf d695 5abf 5b5a 523f 58b7 61bf
00000300: 3d6a 1ebf b126 313f 9563 1d3f 1960 37bd
00000310: 9d6b 21bf 0950 c8be 4bbe 073e 6214 e8be
00000320: a1c5 653e 2cfa 35bf 918d 2e3e a31f 76bf
00000330: c502 47be 4301 a73e 9c24 8c3e 0a7e 24bf
00000340: ed8f 79bd 2dc4 943f ce92 cdbe 19ce f4be
00000350: a23c 12bf 2cf0 77bf a657 11bf 550c 01bf
00000360: 1b62 90be b07f 97be 65a1 8abd b872 433e
00000370: 27b6 05bf 3e77 893f 215d c4bd ad89 96bc
00000380: c0e6 9b3f a7ce 3bbf 1f5c a8be 1918 213e
00000390: d69b ea3e 66c6 163f 9885 32bc e253 a8be
000003a0: 6f67 4fbf 638d 1e3e 468a da3e dd5c 74be
000003b0: f95f 8e3f f77d 3ebf 693d 7dbf 99e8 efbe
000003c0: 36bd 5c3e bd95 453f e2a0 aa3e 1a78 b3be
000003d0: 2b13 a23f 2908 113f 25d1 95bd f904 89be
000003e0: b8c7 f3be cbda d13e 6b6c 213e 65dc cd3e
000003f0: 2a93 863f 04b9 a7be 4de0 6ebf 757b 873f
0.27991876 0.64403164 0.6154537 0.06747443 -0.7345978 -0.7055806 -0.3601414 0.7917608
0.6057912 -0.09217376 -0.77321994 0.39247972 -0.20644288 -0.6445214 0.076201096 -0.55049306
-0.07480258 -0.89349186 -0.01473103 0.04318139 -0.05793402 0.5722713 -0.47041318 1.0089258
-0.6272351 -0.024453428 1.1007242 -0.5653527 -0.4833749 0.28633833 -0.13583685 0.438678
0.5947433 -0.42816052 0.44050574 -0.029916395 0.17516771 1.2448235 -1.1948416 -0.29450962
-0.42127705 0.44262037 0.45476368 0.093759194 1.4249918 0.13667867 -0.22895493 -0.396271
0.0663024 1.5016915 0.29392076 0.18677415 0.7925789 0.22099419 -0.18475972 1.1410222
0.78027266 1.3838651 -0.6412973 0.4765461 -0.16655427 -1.2426467 -1.2469366 0.4902704
0.78007734 -0.04306195 0.30451715 0.06505284 -0.04814304 0.39608032 -1.914595 0.5118905
0.0045221113 -0.06213966 0.742493 -1.5429616 -0.20683856 -0.5168475 -0.20280668 -0.63694644
-0.79032993 -0.10171508 0.513578 -0.21197195 0.7969679 -0.7486625 -0.30356178 0.23064798
0.4201701 0.65320367 -0.011103027 0.53967917 0.37476954 -0.035686255 -0.7696603 0.015989402
0.83296955 -0.82735896 -0.50657386 0.20041607 -0.35324228 0.6483054 -1.1390835 0.951805
-0.13101089 -0.60249186 -0.076493174 -0.84392315 0.21912017 -0.42746612 -0.4858585 0.27793035
-0.09604913 0.46986136 1.2741007 -0.43445155 -0.1331462 0.024607383 0.6423377 0.25596046
0.4399501 -0.15810233 -0.09686701 1.173834 -0.13841932 -0.9742017 -0.9831655 0.8214328
1.417184 -0.13084006 0.06037144 1.6127203 -0.4560122 0.6592058 -0.8475047 -0.20805383
0.6584664 -0.47683427 -1.072245 -1.666422 0.25525308 -0.8844044 -0.39837703 0.57907844
-0.33825132 -0.016676305 0.8840861 0.09085379 0.83253723 -0.2993657 -0.6831418 -1.3349317
0.530484 -0.085937046 0.7492909 0.3302093 -0.23437643 -0.011012785 -0.13980159 0.76511055
-0.3012873 1.2276356 1.3205009 -0.57581866 0.011508085 0.06683209 -1.1637081 0.69390696
-0.4230224 -0.24703126 -0.3371458 -0.19625878 -0.75347733 0.59175986 0.3749491 -0.6344722
-0.69895226 -0.88808763 -0.5435571 -0.75661814 -0.28942734 0.68219465 -0.022553857 -0.8056608
0.11640175 0.85342926 -0.20311528 -1.1613435 -0.92188597 -0.8538488 0.8216912 -0.88170385
-0.61880857 0.69199663 0.61480075 -0.04476938 -0.6305483 -0.39123562 0.13256185 -0.4532805
0.2243867 -0.71084857 0.17046191 -0.96142024 -0.1943465 0.3261815 0.2737168 -0.6425482
-0.060928274 1.1622368 -0.40151066 -0.4781349 -0.5712377 -0.9685085 -0.56774366 -0.5040944
-0.2819985 -0.29589605 -0.06769065 0.1908673 -0.5223107 1.0739515 -0.095880754 -0.018376196
1.2179794 -0.733622 -0.32882783 0.15731849 0.45822018 0.5889648 -0.010896109 -0.32876498
-0.810172 0.15483622 0.4268362 -0.2386355 1.1123039 -0.7441096 -0.9892183 -0.46857145
0.21556553 0.7718161 0.3332587 -0.35052568 1.26621 0.56653076 -0.07315282 -0.26761606
-0.4761331 0.40987238 0.15764014 0.4020721 1.0513661 -0.32758343 -0.93311006 1.0584551

oGRU.bias_ih_l0_reverse f4 [96]
00000000: 0d40 41bd 9889 10bf 35d2 793e 5bf6 72bf
00000010: f87a dbbe ab19 a2bd 85f8 943e 1e4f 35bf
00000020: 67c8 83bf cff3 d0be d00d ebbd 961a dcbe
00000030: 3b51 89bd 14e8 c73d 4476 dfbe 864a 32bd
00000040: c54a debe 1e5a 0c3e 408b c63c 127c a8be
00000050: 1cf2 bfbd ee3f 19bd 46fc 8bbe ef25 d4bd
00000060: 9359 ddbe 7ae8 54be 5266 c5be 6bc5 2cbe
00000070: 68f9 a43d b0c4 e3be 00b6 9abe 285c 4ebf
00000080: b735 0b3f bf28 4ebe e994 a1be d0af cbbe
00000090: b4f3 433f 9c52 bb3e 39c7 5b3f b440 813e
000000a0: 77c8 0f3f 6228 54be 3093 0ebe 6bcd 8dbf
000000b0: 299f 063f b929 09bf cf1a e0be 74c8 623e
000000c0: 8b9c 73be 853a 8e3f 60e9 62bd 92b1 60be
000000d0: d8ca f73d b69d ab3c 0475 e23e e27d 313f
000000e0: 5077 e73e 9f05 e43e 5d2b cc3e 1465 eb3e
000000f0: cf21 b33e c29c 403d 55b2 9f3e 3b8d 81be
00000100: 14cd cebd 4d4a c0be 58b6 9d3e ca5b 783e
00000110: c0cc 10be 24e8 c1be f872 f43d 18a5 ba3e
00000120: 99bc 7c3e 6ee5 bd3e 54b4 973e 5a39 babe
00000130: 44de e7be 3f7e 653d 355c cc3e 8e6a b1bd
00000140: 8c76 633e a4d2 ae3c 4ca7 0a3d 5d03 bb3e
00000150: f789 11be f179 c63e 17c0 03bf a5f9 d4bb
00000160: f9cf 4bbe c8f9 e13e 703d d73e 3ef4 743b
00000170: 9c64 c6bd b4a3 893e 1b32 e6b9 927c 5a3d
-0.047180224 -0.5645995 0.24396594 -0.9490716 -0.42867255 -0.07915052 0.29095855 -0.7082385
-1.0295533 -0.4081101 -0.11477244 -0.42989033 -0.067049466 0.09761062 -0.43644917 -0.043528102
-0.4341642 0.13706252 0.024236321 -0.32907158 -0.093723506 -0.037414484 -0.27340907 -0.10358798
-0.43232402 -0.20791808 -0.38554627 -0.16872184 0.08055383 -0.44485998 -0.3021698 -0.8060937
0.5437884 -0.20132731 -0.31558922 -0.39782572 0.76543736 0.36586463 0.85850865 0.25244677
0.5616526 -0.2071853 -0.13923335 -1.1078314 0.5258661 -0.5357929 -0.43770453 0.2214678
-0.23790185 1.1111609 -0.055398345 -0.21942738 0.12099236 0.020949226 0.442299 0.69332707
0.45208216 0.4453554 0.39876834 0.45975554 0.3498673 0.047024496 0.31190744 -0.25303063
-0.10097709 -0.37556687 0.3080318 0.24253765 -0.14140606 -0.37872422 0.11935991 0.36454082
0.2468132 0.37089103 0.29629767 -0.3637188 -0.45286763 0.0560286 0.39914098 -0.08662902
0.22213191 0.021340676 0.033850953 0.36526003 -0.14212786 0.3876491 -0.5146498 -0.0064994865
-0.19903554 0.4413588 0.4203906 0.0037377025 -0.096871585 0.26882708 -0.0004390635 0.053341456

oGRU.bias_hh_l0_reverse f4 [96]
00000000: 0b17 e53c a054 25bf 6710 fabc 16cf 80bf
00000010: a0d7 f8be d145 3dbd 335d 3e3e 236e 69bf
00000020: 6451 94bf 62f7 a2be a99f c43d 9fdd 07be
00000030: 5c85 103e bab1 a93e 2a10 89be 0e05 303b
00000040: cc55 03bf 926c 3ebd 2623 813d 2e70 e0be
00000050: 2f4c b6bd 4126 69be 0e0e a9be 53f3 873d
00000060: 1413 64be 61e1 74be 5922 82be eab5 c53b
00000070: 50ab 913e 198c c0be 7943 1ebe 494a 46bf
00000080: 2643 1b3f c690 48bd b7d5 a4be c7f8 c7be
00000090: 10b2 443f 2e61 d63e f28a 6d3f fdd5 173e
000000a0: b017 303f 1ceb 843d f812 d9bc 2e7d a4bf
000000b0: a13c 1d3f afee 17bf 1716 bcbe 2db4 aa3d
000000c0: 8fec d1bc f83b a23f 72af 06be 5136 91bd
000000d0: 443a 7e3d 2556 783e 8ac1 ee3e 18c7 323f
000000e0: e3a7 093f 7750 a43e 8d98 9c3e 1cca ce3e
000000f0: b236 2b3e 1e46 03be 9143 853e 2d83 cbbe
00000100: b9c5 2dbd 668c 30be 7406 013f 0c68 a1bd
00000110: cd8d 313f c8e1 a5be f870 763e 82b5 f53d
00000120: 051c 97be 51f6 383e f2cf f83e 15c3 b4be
00000130: ea1c 16be 52c2 e0bd 6839 143f f7dd 7bbe
00000140: 9a0e 303e a7f3 a4be b9cd 3ebf 59e5 053e
00000150: a093 74bd 735a 963e d601 b1be c135 263e
00000160: 9c20 36bd 75b0 853e af5a a9bd 1ee1 bdbe
00000170: 03c6 313e 10cb 133e 5868 66bd 667a 1ebe
0.02796509 -0.6458225 -0.0305254 -1.0063198 -0.4860201 -0.04620916 0.1859024 -0.9118368
-1.1587338 -0.31829363 0.09600765 -0.13268135 0.14113373 0.33143407 -0.26770145 0.0026858482
-0.5130279 -0.04649026 0.06305532 -0.43835586 -0.089012496 -0.22768499 -0.33018535 0.06638207
-0.22272903 -0.239141 -0.2541683 0.0060336487 0.28451014 -0.37606886 -0.15455426 -0.774571
0.60649335 -0.04896619 -0.321943 -0.3905699 0.768342 0.41871017 0.9279014 0.14827724
0.68786144 0.06490156 -0.026498303 -1.2850702 0.6142064 -0.5934858 -0.36735603 0.08335147
-0.025625495 1.2674551 -0.13152865 -0.07090438 0.062067285 0.24251612 0.46632034 0.6983504
0.537718 0.3209264 0.30585137 0.40388572 0.16720083 -0.12819716 0.26028112 -0.39748517
-0.04242489 -0.17241058 0.5040047 -0.078811735 0.69356996 -0.3239882 0.24066532 0.119975105
-0.29513565 0.18062712 0.4859615 -0.35305086 -0.14659467 -0.10974564 0.57900095 -0.24596392
0.1719307 -0.32217142 -0.7453266 0.1307577 -0.0597111 0.29365882 -0.34571713 0.16231443
-0.044464692 0.2611119 -0.0826925 -0.37085813 0.17360692 0.14432931 -0.056251854 -0.15476379

oGRU.weight_ih_l1 f4 [96, 64]
00000000: a272 563f 6c3e e33e 809e 003f 6845 bd3e
00000010: 8d87 a4bf e77c a93d dba2 e83e 586c 173f
00000020: 23bf 143f 14fa 383f 49a4 383f e1c9 5ebe
00000030: 4d14 c4be 91a8 a7be a3d6 6c3d 956e 8abc
00000040: f0a0 9fbe f034 be3e a33a 0bbb 7b64 0f3f
00000050: ac4f 8f3e d767 b23e 8ae2 3c3f b70d 0bbf
00000060: b4d9 d33d 7e57 003f bf55 5e3d a6cf 8ebe
00000070: ef21 7bbe a355 ccbd 2909 343f f9b8 72be
00000080: 2f2f c2be 8012 90be 3d25 92bf c4e8 973d
00000090: a6de 1bbf 5a1e ba3f 50ec 8a3e 36e0 a93e
000000a0: 5a22 53bf 3ff4 283e 1b40 1b40 5bee 63bf
000000b0: a091 8b3e 04c4 853e c68e 5abf 6805 153f
000000c0: 7ea3 58be 0211 dc3f 30d8 bd3f 1960 ee3e
000000d0: 7109 913f 00f6 3cbf 6d20 69be c75e e13f
000000e0: 3ab8 29bf 7f22 343f aaed b13e 7cfa aa3f
000000f0: f28e d43f d603 56bf 768f 5ebf 8b4a 863e
00000100: 625b 3dbf 99c8 7dbf 18b4 4abf 1ce5 953e
00000110: 2772 58bf d4db 833f 8e73 9d3f 040e acbe
00000120: f111 3b3e 443f 883f a24a 3dbf 1ed2 1a3f
00000130: 2645 983d 404f 6a3e b6c5 48bf 02bf 2fbf
00000140: d0d1 5c3e 0883 a3bf 1e43 3dbe c455 d43f
00000150: 22ad 24be 4aff 163f 6475 0b3f dffa 36bf
00000160: 01de 313f 2dd2 bcbe 82e4 99bf cca0 c2bd
00000170: 4ebf 82be 96a6 80bf 1ded 8f3e 70b2 27be
00000180: 0537 3cbe e76b 933d 045e 113f e262 313f
00000190: 84b3 e93d 591a a8be 9177 f3be 5076 a2bf
000001a0: f3a7 57be 65a9 94bd a425 193f 79c6 933f
000001b0: 191d 833f f047 9b3e 03b4 d0be 3408 913e
000001c0: 5f13 b9be 0a63 313f 9690 643f 7fbe 3f3e
000001d0: 74af b2be c610 9c3e e90d 16bf dc6c 87bf
000001e0: 6c9a 78bf 16f0 1c3f 872d 8d3e dce2 783e
000001f0: d85d 87bf 7c3e 533e 0d18 14be 4adf 033f
00000200: 4b24 963f e4e6 553f 0602 70bc 1e1f 18be
00000210: ef27 93bf c221 003f c683 ff3f 527e 3fbf
00000220: 2183 e03e 6338 19be 9588 793e 0b78 3b3f
00000230: 0b9e 823d 024a 89bb 285d c73e 7ba1 8c3f
00000240: f8e7 373f 7d8d 863f b102 61be 8fd5 26bf
00000250: b5bc 7c3f f1a4 f1be 608e fd3e fcd3 73bd
00000260: 8e97 893e 8677 6d3f d3e0 253f 33a9 c63f
00000270: 18e9 ba3d 069c d83e 15fc 373e 43ad 8a3d
00000280: 4153 0cbf 886c 9bbe 9541 f83e afe6 96be
00000290: ecfa a23e 5a24 8dbf 3b88 2dbe 2779 533f
000002a0: d3e0 893f 5f53 1cbe bd19 88be 6fe1 32be
000002b0: b914 18bf 2dfa 1abf 5faa ed3e 0a8c 1ebf
000002c0: 4ea1 ad3c 4da4 b4be e01d fdbe d58c d13d
000002d0: ab68 883e c930 803f 9f43 0f3f b8ab a33e
000002e0: a700 9abe eee2 c2be 8053 403f 848e 46bf
000002f0: eb32 6dbf 3ce3 2a3f 568d d63e 39a1 cfbf
00000300: 9120 323f 1822 a3be 5cb2 b73f 7c6a 153f
00000310: 95b9 183f 6a04 903f c9ca ce3e 10a9 75be
00000320: ea1f 42bc a063 ccbe e133 49be 2f3d c8be
00000330: 85dd abbe 6400 f2be 3ca5 d33e 0c76 52be
00000340: d982 08be 601e c4be 5478 86bf 93ee 08bf
00000350: 874d a1bf 2035 0840 9199 203f 7272 48bd
00000360: 9d27 98bf ff84 e2be abdb 30bf ceae 63bf
00000370: dce5 4c3e 8bcb 903d 4594 7fbe b205 193f
00000380: f1b3 a3bf f6e5 ba3f 0ff0 7a3f 425a 293f
00000390: 0c34 e5be a90b a9bf da01 083f c757 84bf
000003a0: 2f16 a83f 340a 813f 65da 5f3f 7e62 88bf
000003b0: c960 a3bf 0b8a 77bc b1e7 193f 154d be3e
000003c0: 0412 57be 2b37 8dbe 5909 83bf 8e1a 873e
000003d0: e749 b5bf 477c babf b4e0 c5bf a976 03be
000003e0: 843b 473f 7416 3dbe 4529 463e 4bd0 fabf
000003f0: f87c 133f 99b9 8c3e f561 ae3c d3b6 8fbe
0.83768666 0.44383562 0.5024185 0.36967015 -1.2853867 0.08275776 0.4543675 0.59149694
0.5810415 0.7225659 0.7212568 -0.21756698 -0.38296738 -0.32745793 0.05782188 -0.016898433
-0.31177473 0.37149763 -0.0021244667 0.56012696 0.27990472 0.3484485 0.7378317 -0.543178
0.10344258 0.501335 0.054280993 -0.27892798 -0.24524663 -0.099772714 0.7032648 -0.23703374
-0.37926623 -0.28139114 -1.1417614 0.074174434 -0.6088661 1.4540513 0.27133417 0.33178872
-0.8247429 0.16499422 2.4257877 -0.89035577 0.2725954 0.2612611 -0.85374105 0.58211374
-0.21156117 1.719269 1.48316 0.46557692 1.1331006 -0.73812866 -0.22766276 1.7607049
-0.6629673 0.70365137 0.34751636 1.3357692 1.6606123 -0.83599603 -0.86937654 0.26228747
-0.73967564 -0.9913421 -0.7918105 0.2927636 -0.8454918 1.0301461 1.230089 -0.33604443
0.18268563 1.0644307 -0.73942006 0.60476863 0.07435064 0.22881794 -0.7842668 -0.6865083
0.21564412 -1.2774363 -0.18482634 1.6588674 -0.1608167 0.5898329 0.54476 -0.7147655
0.69479376 -0.368791 -1.202286 -0.09503326 -0.2553658 -1.0050838 0.2811059 -0.16376662
-0.18380363 0.07198315 0.5678408 0.6929151 0.11411193 -0.32832602 -0.4755216 -1.2692356
-0.21060161 -0.07258872 0.5982306 1.1544944 1.0243255 0.3032832 -0.40762338 0.2832657
-0.3614759 0.69291747 0.8928312 0.18725012 -0.34899485 0.30481547 -0.58614975 -1.0580096
-0.9711063 0.6130384 0.27573797 0.2430529 -1.0575514 0.20629305 -0.144623 0.5151259
1.1729826 0.83555436 -0.01464892 -0.1485562 -1.1496562 0.5005151 1.9962089 -0.74802125
0.43850043 -0.14962916 0.24368508 0.73230046 0.063778006 -0.0041897306 0.3893826 1.098678
0.7183833 1.0511929 -0.21973683 -0.65169615 0.98725444 -0.47196153 0.49522686 -0.059528336
0.2687344 0.92760503 0.6479618 1.5520386 0.0912649 0.42306536 0.17967255 0.06771328
-0.54814535 -0.3035624 0.48487535 -0.29472873 0.31832063 -1.1026719 -0.16946499 0.8260674
1.0771736 -0.15266179 -0.26582137 -0.17468809 -0.5940662 -0.6053799 0.46419045 -0.6193243
0.02119508 -0.35281602 -0.49436855 0.1023194 0.26642355 1.0014888 0.55962557 0.31966949
-0.30078623 -0.3806376 0.7512741 -0.7756121 -0.9265582 0.6675298 0.41904706 -1.6221076
0.6958094 -0.3186195 1.4351306 0.5836561 0.59658176 1.1251347 0.40389088 -0.23990273
-0.011848429 -0.39919758 -0.19648696 -0.3910918 -0.33567443 -0.47265923 0.41337 -0.20552844
-0.13331164 -0.38304424 -1.0505471 -0.53489035 -1.2601784 2.1282425 0.62734324 -0.04893727
-1.1887089 -0.44242093 -0.69085187 -0.88938606 0.2000956 0.07070073 -0.24958904 0.59774315
-1.2789289 1.4601429 0.9802255 0.6615335 -0.4476627 -1.3206683 0.53127825 -1.0339288
1.313177 1.0081239 0.8744262 -1.0655057 -1.2763911 -0.015108596 0.6011916 0.37168184
-0.21002966 -0.27581152 -1.0237228 0.26387447 -1.4163178 -1.4569176 -1.5459199 -0.12838234
0.7782519 -0.18465596 0.1935168 -1.9594816 0.5761256 0.2748535 0.021286944 -0.2806917
