Deep_11_13/Ex6/OneToMany.pt (torch, 39439 bytes, 8 tensors)

oEmbedding.weight f4 [55, 32]
00000000: 3b30 1640 bcf7 983e 2c1f 923f 7a2f 553f
00000010: f67d 4dbf 217e ac3f c6ce c3be f69c ce3f
00000020: 6747 9cbd c74e cebf 657d 94bd 376a 783f
00000030: ae65 6cbe cd50 ef3f 6358 ce3f ebe1 b9be
00000040: bb50 02be 7a22 7b3e 8710 9ebf 727d c73f
00000050: 6263 5bbf d652 91bf 0bcb c63e 57c9 07bf
00000060: 3cf2 90bf 5b47 d13c 3394 04bf 8c5f 72bf
00000070: 88c0 0dbf ec90 d5be 328c 6c3e 1982 da3f
00000080: 6a11 71bf 8f7b de3e 8242 92bf f79d bbbc
00000090: f805 98bf 013b d23f 10af 8c3f 42a4 b43f
000000a0: cd3c a53e bb3a 263e 8b7e dcbe a1f8 10bf
000000b0: 2977 31be f38f d5be f4bc 0cbf 972b 863d
000000c0: b788 9f3f 44c3 59be 1841 853f a268 2fbf
000000d0: 0299 be3e e8cf 843f e6ae 023f a2a0 083f
000000e0: 1100 b8be c77a 663f 7a33 773e 3f91 30bf
000000f0: 0a9d 563b 5553 79bf 25d8 913e a335 6e3f
00000100: 9c6c 4bbf 8fd9 b83f 131d bb3e 93c2 1440
00000110: e81c 72be bdfc bebf 24a0 0140 1cf0 07bf
00000120: dd82 1b3f e4ff a7bf 091a d93f 6269 b1bf
00000130: eefa d1be 6c7f 6f3e 07d9 123f 6802 af3e
00000140: bc21 6fbf fd87 21bf 5891 a3be 97ad 04be
00000150: fbed 94bf 94eb c3be 3cb5 aa3f d232 723f
00000160: c9e1 82be 67b6 b8bf 1451 e73e 7965 0e3e
00000170: 68df b7bd 56af 67c0 58e1 d23d d14e 133f
00000180: cf68 1abf 437b 13be abe0 a3be 00b0 573f
00000190: e172 933f 5c49 813e 121d a3be 08b4 94bf
000001a0: 634a 92bd 85db ac3e d1fc 55be 1b39 393e
000001b0: e0eb 4b3f 3880 1cc0 5d52 ec3d 52a2 f6bf
000001c0: eb04 fb3d d853 573f 17ee 1bbf 7ada 73be
000001d0: d924 02bf a559 ee3e 3af5 38bf 87d7 a2bf
000001e0: 3fef 1c3f 3938 1bbe fa5d 94bf 1077 50bf
000001f0: d996 b73f de07 2fbf e85a 7cbf a68b ddbe
00000200: 50f8 eabf 2391 9d3e 6729 50bf b28f 773f
00000210: 2a05 4abf ca3b 7bbe 3abd f73e 36bb 7cbf
00000220: 21f8 cdbe e569 79bf 1323 81bf 2d1c 68bf
00000230: 4d4a 853d fee2 3cbd f988 b0bf 9cde 803f
00000240: db9e 02bf 0011 973f ccf7 083f f1a9 8d3e
00000250: 99eb c33d 59be 4cbe d914 ac3f e2f4 bdbd
00000260: 9f65 90bf 1fd8 b4bf aa81 0b40 ea57 49bf
00000270: b3ce 833f 58e3 78be 6c72 293c 54ba 0040
00000280: 9817 583f 21f2 ee3f 1081 163f 183f 7d3e
00000290: ac7f afbf ce71 563f de61 303f 0f12 3fbe
000002a0: bb38 8e3f 4c48 40bf 0520 4a3f f7af bc3d
000002b0: 36f1 993e e03d f93e a5ee c2be 9d04 fdbf
000002c0: 8268 b4be 5004 42be 66f5 bf3f 6e43 f43e
000002d0: 8348 c63f 6262 95bf 734c 873f 1a2b 803e
000002e0: 9cb9 47bf 91cd 2ebf a071 1fc0 bd3a 3fbf
000002f0: 977c 40bf fbc4 e93f af55 81be 53ab d63f
00000300: 5406 9ebf d072 99bf f0a2 46bf 2cc7 66bf
00000310: f496 37bf 482e 783f 4fc5 833f fc67 38bf
00000320: 8369 c83e 8c71 be3e e3fe fcbb 640c 793e
00000330: 40c7 9d3e 03a9 5ebf 7b9b 01bd 0780 843d
00000340: 47bd cf3e 8d02 ffbf 4a2f ec3d 9766 a33f
00000350: caff 6a3e 3202 193f 6de3 513f cd11 ad3f
00000360: 5ed6 ba3e bff3 813f a21f a5bf f250 a7bf
00000370: e076 8c3f 5087 a53e 3cee 91be 6cb4 edbe
00000380: 89cb 0fbf 98cf 28bf 695d 79be b52b 73bd
00000390: 92f8 583f a52c b2bf f4b7 85bf 79ba 57be
000003a0: 63df 37be 753a e33e cd62 f2be eeab 403e
000003b0: 3f06 cfbf 0783 efbe d58e b7be caff 1f3f
000003c0: 47c2 9dbe 9b92 013e 15f8 903f 8770 2dbf
000003d0: c892 e2be baee 02bf 499d a9bf b0f5 8fbf
000003e0: df67 1dbf 7092 983f 2e5f 973f ab0d ff3b
000003f0: 2858 46bf c597 973f 59d8 4dbf c5e6 f6be
2.3466938 0.29876506 1.1415763 0.8327557 -0.80270326 1.3475991 -0.38243693 1.6141651
-0.076308064 -1.6117791 -0.072504796 0.9703707 -0.23085663 1.8696533 1.6120723 -0.36305174
-0.12726109 0.2452487 -1.2348794 1.5585158 -0.8569852 -1.1353405 0.38826784 -0.53041595
-1.1323924 0.02554672 -0.51788634 -0.9467704 -0.55371904 -0.4171213 0.23100355 1.7070953
-0.94167197 0.43453643 -1.1426547 -0.022902472 -1.1876822 1.6424257 1.0990925 1.4112628
0.3227295 0.16233341 -0.43065295 -0.5662938 -0.17330612 -0.41711387 -0.5497582 0.06551283
1.2463597 -0.21265894 1.041049 -0.6851903 0.3722611 1.0375948 0.51048124 0.53370106
-0.3593755 0.90031093 0.2414073 -0.6897163 0.0032747411 -0.9739278 0.28485218 0.93050593
-0.794626 1.4441394 0.3654562 2.3243759 -0.2364384 -1.492088 2.0253992 -0.5310075
0.60746557 -1.3124967 1.696107 -1.3860285 -0.41011757 0.23388451 0.5736241 0.34181523
-0.9341085 -0.63098127 -0.31946826 -0.12956844 -1.1635126 -0.3826567 1.3336558 0.94608796
-0.25562885 -1.4430665 0.45179045 0.13905896 -0.08978158 -3.6200767 0.10296887 0.5754214
-0.60316175 -0.1440249 -0.32007346 0.8425293 1.1519433 0.2525128 -0.31858116 -1.1617441
-0.071430944 0.3376123 -0.20897223 0.1808819 0.7965679 -2.4453259 0.11539147 -1.9268286
0.122567974 0.8411231 -0.6091017 -0.23813811 -0.50837475 0.46552768 -0.72249186 -1.2722024
0.6130256 -0.15158166 -1.1591179 -0.81431675 1.434291 -0.6837138 -0.9857621 -0.43270606
-1.8357029 0.30774793 -0.81313175 0.96703637 -0.7891413 -0.24534526 0.48386556 -0.9872316
-0.4022837 -0.9742721 -1.0088829 -0.9066799 0.065083124 -0.046114914 -1.3791801 1.0067935
-0.51023644 1.1802063 0.5350311 0.27668718 0.09566421 -0.19994487 1.3443862 -0.09275223
-1.1281012 -1.4128455 2.179789 -0.7864977 1.0297455 -0.24305475 0.010342222 2.0113726
0.84411 1.8667642 0.58790684 0.247311 -1.3710837 0.837674 0.68899333 -0.18659233
1.1111063 -0.75110316 0.7895511 0.0921325 0.30066842 0.4868002 -0.38072696 -1.9767033
-0.35235983 -0.18946958 1.4996765 0.47707695 1.5490879 -1.1670649 1.0570205 0.25032884
-0.7801759 -0.6828242 -2.4913101 -0.74699 -0.7519011 1.8263239 -0.25260684 1.6771034
-1.2345681 -1.1988163 -0.7759237 -0.9014766 -0.7171471 0.9694562 1.0294589 -0.7203367
0.39143 0.37196004 -0.0077208146 0.24321133 0.30816078 -0.8697664 -0.03164242 0.06469732
0.40574095 -1.9922653 0.11532457 1.2765683 0.22949138 0.59768975 0.8198765 1.3521057
0.36491674 1.015251 -1.2900279 -1.3071578 1.0973778 0.32329798 -0.2850207 -0.46426713
-0.56169945 -0.6594176 -0.2435204 -0.059367854 0.8475429 -1.3919874 -1.0446763 -0.21067227
-0.17956309 0.44380537 -0.47341004 0.18815586 -1.6173781 -0.46779653 -0.3585116 0.6249968
-0.30812284 0.12653582 1.1325709 -0.6774983 -0.4425261 -0.5114552 -1.3251125 -1.1246853
-0.6148662 1.1919689 1.1825922 0.007783612 -0.77478266 1.1843191 -0.80408245 -0.48222938

oDecoder.oEmbedding.weight f4 [55, 16]
00000000: cf24 0d3e 0e84 4d3e 53b2 923e 0269 03bf
00000010: 6670 33c0 7d4a 4f3e c3b9 243f cc4e 963f
00000020: 085e 753e 8850 ef3e d12f 083f 5766 793f
00000030: 0957 6bbf 80dd 0b3f f082 bebf 792c 77be
00000040: 7e87 53bf e98b fabf 03dd eabb f479 f3bf
00000050: e18b aabf cf17 8f3f d0ca 473e fc44 15be
00000060: 6c90 00c0 3da5 5cbe 3049 8ebf ba48 93bf
00000070: fa99 b03f d2f7 0abe a902 65be 3f5e b7be
00000080: af8d 9ebd d542 c53f 9c4e 1d3f cf61 fb3f
00000090: 9c8b 5f3f ee2f 59bf b51d 41be 9956 00bf
000000a0: 3a69 493e 9dfa abbe eab9 b3be 512b 05bf
000000b0: e101 b63f 8d71 8dbf bfcc 78bf 044e 103f
000000c0: c73a 5b3e 5aee cf3e 426c 743e acaf 373e
000000d0: 8dcc 3440 61d1 8c3f 39ac 05c0 bc9c 743e
000000e0: a9bb e23f 5135 103f 38c1 c43f 4d42 b23f
000000f0: 6257 97be 0286 863f 1835 cf3f 7d50 8ebf
00000100: c8b4 a3bf f8d4 8e3e 3a9a 713d f0b5 02bf
00000110: 7c9d e6bd 9ae7 de3d 29d7 d5bf da55 273f
00000120: 2e4a 2ebe 972f f9bf ca19 043e e114 13bf
00000130: 35c8 debf bdb1 083e 8465 4abf 30e5 0b3f
00000140: f5aa 58be 4c1a aabf 3c86 e5bf 787d bcbf
00000150: 0906 0b3f 3430 1b3f fa3a 5d3e 1d06 e53f
00000160: f28a 3ebe 8440 ecbd 5a50 21be 6927 77bf
00000170: cd5d 363f 0d2c 283f d682 573f d8ef c63f
00000180: ffae 29bf a8e7 95be ceda 78be 5d68 29bf
00000190: 8ca6 433f 40bc 0c40 9b27 43bf b6d5 4dbe
000001a0: fd2f 503f 37d7 20bf a3dc e93d 649f cb3f
000001b0: 6c94 953e f313 e0be 0594 3d3e fdf2 be3f
000001c0: eee4 ec3e 7181 743e e280 973f 2cb4 d53e
000001d0: 1d14 683b 7475 703e 5cf2 05bf 4f79 ca3e
000001e0: 9a8e 0b3f 0d19 013f 8728 bfbf 94c8 98bf
000001f0: 1880 71bd f5b0 07c0 1640 dfbf 091c 053e
00000200: baad 413f 4d09 a8bf 8a67 82bf 2968 883e
00000210: 35cd 89bf c441 2dbe f6d9 f3bf 19fd 95bd
00000220: 2bdd 8dbf 1807 2ebf 42e4 07c0 d3a9 293f
00000230: 75f9 1f3f 581e a2bf 51f0 c6bf ea3c 9dbe
00000240: a74b 143f 75b0 9c3f 0a2c aebe 55e7 e2bd
00000250: 1da8 1340 2b14 9cbf d3e4 cabe 909e a3bf
00000260: 0126 debf e778 92bf 422b 8ebf 6f94 0abf
00000270: 667d 06c0 9f57 2240 4e6f 80bf 04fe 14bf
00000280: 7b53 1540 4c28 08bf b0d1 afbe 2008 893f
00000290: 756b e43e 5006 fc3f c283 033f c982 0240
000002a0: 1672 06bf 28fc 80bf 066b f53f 33b8 6b3e
000002b0: 4607 eebf b65f de3f 38b4 683f c77f a03f
000002c0: bd7d e8be 3577 e8be d0af 75be b308 67bf
000002d0: b807 42bf bc1b 1c3f de13 31bf 6488 163f
000002e0: 5e7f 74bf 2001 a8bf 082a 81be 2e1e aabf
000002f0: cb65 5cbf 39ae 24bf 8423 eabf 8ce0 65bf
00000300: b19a cb3f e923 02be 75f9 cd3f 779e c53f
00000310: aea8 dabf e7ff 1abd 5cc6 a4bf 7dc6 1e40
00000320: 7a33 013f 5269 4c3e 6727 1940 433b e73f
00000330: 97c5 253f f042 80be 7f99 243e f1fa 183e
00000340: bef7 d1bf f244 72bf 1710 aebe 79ce 37bf
00000350: 7e99 3d3f d024 22bf ab0c 9d3e ee9a e33f
00000360: 025f 5e3f dbbb 2a3f 33ec 2cbf 6cc4 bdbe
00000370: 6599 cebe 7f04 fe3f b302 a53f ff91 17bd
00000380: ddd2 0ac0 9093 20bf 8748 c13f 05e9 eebf
00000390: dfb3 dbbd 244f eebd 7e88 0b3f 8f27 28be
000003a0: 6ea1 053e 6c0f f63f 8e0b 0540 932f 38bd
000003b0: 07e3 35bf 5181 cbbf dec9 ab3d 9138 633f
000003c0: 0a35 1dc0 f669 443f 0b42 47be fba2 9d3e
000003d0: fd0c a2be d2a7 9b3f 6233 e7bf 8aef ec3e
000003e0: e9f0 033f 277b c0bb c277 fc3f f573 f23f
000003f0: caac 1d40 bd52 f73e b826 633f dbb0 1dbf
0.13783573 0.20069906 0.28651676 -0.51332104 -2.8037353 0.20243259 0.6434595 1.1742797
0.23961651 0.46741128 0.5319796 0.97421783 -0.9192968 0.5463486 -1.4883709 -0.24138059
-0.8262862 -1.9573947 -0.00716746 -1.9021592 -1.3323938 1.1179141 0.1951096 -0.14577097
-2.0088148 -0.21547408 -1.1116085 -1.1506569 1.379699 -0.13571098 -0.22364296 -0.35814092
-0.07741868 1.541102 0.61448073 1.9639224 0.873224 -0.8483876 -0.18858989 -0.5013214
0.19669047 -0.3358964 -0.3510278 -0.5201922 1.4219323 -1.1050278 -0.9718742 0.5636904
0.2140914 0.40611535 0.23869422 0.17938107 2.8249848 1.1001397 -2.0886366 0.23887914
1.7713519 0.56331354 1.5371466 1.3926483 -0.29558855 1.0509646 1.6188078 -1.1118313
-1.2789545 0.27896857 0.058984973 -0.51058865 -0.112605065 0.10884018 -1.6706287 0.65365374
-0.17020485 -1.9467648 0.12900463 -0.57453734 -1.7404848 0.13349052 -0.7906115 0.5464659
-0.21158965 -1.3289275 -1.793159 -1.472579 0.54306084 0.6062043 0.21604529 1.7892491
-0.18607691 -0.11535743 -0.15753308 -0.9654451 0.7123688 0.65692216 0.84184015 1.5541945
-0.6628265 -0.29278302 -0.24302217 -0.6617487 0.76426005 2.1989899 -0.7623231 -0.20101056
0.81323224 -0.6282839 0.11419036 1.5908017 0.292148 -0.4376522 0.18513496 1.4917904
0.4626841 0.23877503 1.1836207 0.41739023 0.003541238 0.23482305 -0.52322936 0.39545676
0.5451447 0.5042885 -1.4934243 -1.1936212 -0.05896005 -2.1201756 -1.7441432 0.12998976
0.7565571 -1.3127838 -1.0187848 0.26641968 -1.0765749 -0.16919619 -1.9050891 -0.07323665
-1.108312 -0.67979574 -2.1233068 0.66274756 0.62490016 -1.266551 -1.5542089 -0.30710536
0.57927936 1.224135 -0.34017974 -0.11079279 2.3071358 -1.2193655 -0.39627704 -1.2782764
-1.7355348 -1.1443146 -1.1106951 -0.5413274 -2.1014037 2.536598 -1.0033967 -0.582001
2.3332202 -0.5318649 -0.34339666 1.0705605 0.44613233 1.9689426 0.5137292 2.0392325
-0.5251783 -1.0076952 1.9173286 0.23019485 -1.859597 1.7372959 0.9089999 1.2538995
-0.4540843 -0.45403448 -0.23992848 -0.9024765 -0.7579303 0.6097982 -0.6917094 0.58801866
-0.95506847 -1.3125343 -0.2522738 -1.329046 -0.86092824 -0.6432834 -1.8292089 -0.89795756
1.5906583 -0.12709011 1.6091753 1.5438985 -1.7082727 -0.037841704 -1.2873034 2.4808648
0.5046917 0.19962052 2.39303 1.806496 0.64754623 -0.2505107 0.16074179 0.14939477
-1.640373 -0.9463645 -0.3399665 -0.7179943 0.74062335 -0.6333742 0.30673727 1.7781656
0.8686372 0.66692895 -0.6754791 -0.3706392 -0.40351406 1.9845122 1.2891449 -0.037004467
-2.16912 -0.6272516 1.5100259 -1.8664862 -0.10727667 -0.116361886 0.54505146 -0.1642134
0.13049862 1.9223456 2.0788302 -0.044967245 -0.7104954 -1.5898839 0.083881125 0.8875819
-2.4563622 0.76724184 -0.19458787 0.30788407 -0.31650534 1.216059 -1.8062556 0.46276504
0.51539475 -0.005874056 1.9724047 1.8941637 2.4636712 0.48305312 0.88730955 -0.61597985

oDecoder.oGRU.weight_ih_l0 f4 [96, 16]
00000000: 600a f43c 7a42 01be 8a97 ae3d d40f 2cbd
00000010: ed7e 2fbe f7b1 773d c2bf fc3d b982 cd3d
00000020: f78f e7bd 57ef 023c 2280 83bc 10fe 443c
00000030: a585 1fbd baa3 353e a9b6 0c3e 4d8a 353d
00000040: 6318 02be 5deb 123d d8dd 063e d8f0 fb3c
00000050: 235f 47bd 1b4b c03d 1b64 1e3d e754 f8bc
00000060: 0a22 07be 398d 30be 198e 22be 9e83 4f3d
00000070: b53e 363c 6eec 743d 2be5 45be c532 3f3d
00000080: c9fa 49be d341 813c a6ba b7bc 4853 30bd
00000090: 8e09 153d 2a78 523e 95c9 c13d 4f05 a63d
000000a0: 7f79 39bd 827a 36be 0b4c bdbd b686 143e
000000b0: 7cdc 3bbc 6815 57be c8a0 c93c 3009 d5bc
000000c0: a8c8 0d3e c1b0 a9bc 76c7 e2bb 9b3d 2cbe
000000d0: 5028 38be 235b 0a3e 025c dfbc 63b1 603d
000000e0: 6d43 4b3d 0679 be3c 6ad1 debd 90c0 f33d
000000f0: 98ed 17be 0c1f 24bd dd55 203c 3eca 0dbd
00000100: b710 debd 0a02 663b 62a2 09bd c63b 1d3d
00000110: e9c7 0abd 3981 7d3e 67b8 e33d 1ba8 d23d
00000120: 47da f2bd 9084 b5bd 4b67 edbc b6c1 383e
00000130: 7a3a bb3b 5f28 463d 76bd b2bc ebc3 623b
00000140: 5ca0 f7bd a227 41bd 5c8d 213e 4171 af3d
00000150: 36cf 633e ed7a 0dbe 11b4 65be 1ea0 473e
00000160: 25b4 feba 3889 87ba 64b2 e839 699f 14bd
00000170: ea4a 66bc 7d50 2a3e 152c b93c 2682 113e
00000180: ef9e 013e 43cd 0cbe cde3 b1bd 8e34 10be
00000190: f387 a83d ef47 c93d 7223 04bc bc4d 313e
000001a0: 4ee0 65bd 4300 e7bd 463c 1b3e f7ab 443e
000001b0: 2353 2bbe e3f2 803e e12e 15bc 1952 1b3d
000001c0: a5eb 46be 9446 86bd acda da3d 13a8 1b3e
000001d0: e8b3 6b3e 60ad 213e 9167 1ebe 459e 4bbd
000001e0: 6974 a63c 751b 70be 309b 413c 7725 1bbe
000001f0: b7fc 89bd ba67 95bd 5527 c33d 03b6 833d
00000200: 4d72 f2bd 4f69 093d b3c1 ae3d 6acb 8abc
00000210: fea9 bf3d 9a4a c13d 9950 9bbc a7aa 02bd
00000220: ec2a 02be 6f8c 5fbd bf71 d73d 7655 363d
00000230: 57c3 05be 4dda 363e 2cc8 053e 43f6 f63d
00000240: a04a f13d 4b11 ecbb 9ca6 21be 5b6f 643c
00000250: 1518 d2bc 0fed 9e3d cbad 88bd 82cc 26be
00000260: 9b74 e7bd 84a3 b03c b56a b4bd 6366 0ebd
00000270: fb81 63bd fd32 873a 302e 47bd 66cd 0f3e
00000280: 7951 693c 6377 4dbe ebac 8f3e 00ef 14be
00000290: a681 623c ba4b c2bc a1e0 bb3d 2f77 093d
000002a0: ffde 763e 8a0e 05bd dedc 82bd 1a82 cf3c
000002b0: 0a79 85bd ba94 353e a9a8 1bbe 3b27 5a3c
000002c0: 9647 723d 86e8 183d ef11 18bd cba2 febc
000002d0: ed54 81be f4bc 4a3e 864b 183e e499 8d3e
000002e0: 9144 35be 1205 97bd 531a eabc e60d 763e
000002f0: d2a2 c3bc 2c59 053d 6d45 c6bd f29a 83bd
00000300: 2e38 71bd eddd 21be 0001 d43d e67f 783d
00000310: e297 cc3d 881d c53d aab1 8dbe fbd0 afbd
00000320: 8c00 9e3c 2f77 29bd 6a5c 35bb 04d7 853d
00000330: e7fa a0bc 062a 93bc 51d4 85bd fe7b 733e
00000340: 4b79 65bd 840c b4bd 43b0 c23d 5ae9 1fbe
00000350: af0e efbd d60b f53b 21fb 4f3d df9b e0bd
00000360: f61c 52be 9811 3dbd 40db cdbd e825 18be
00000370: 075e 163e 107d 71bd c5aa 6b3d 066d 3c3d
00000380: 4631 9ebd 7bb4 98bd 4b63 debd 72b8 80bd
00000390: 08cd 1fbd dd6c ce3d f4eb 1d3d 4720 313e
000003a0: 651d 1f3e 6702 9abc 6337 b9bd 0f5d 0cbc
000003b0: bdd7 0fbe 965f 7a3c 8926 acbd 84e5 ecbd
000003c0: 4a39 5abe f1fb 84bc 2f68 d63b 9cfe 723d
000003d0: c751 b13c 3ea2 b8bd 43dc abbd 32cf 14bd
000003e0: 0170 213d 7424 78be e980 433d be42 4f3e
000003f0: b40d 0b3e 3667 623d 857c ab3d cb18 2e3e
0.029790103 -0.12623015 0.085249975 -0.042007282 -0.17138262 0.060472455 0.123412624 0.10034699
-0.11306756 0.007991633 -0.01605231 0.012023464 -0.038945813 0.17738238 0.13741554 0.044321347
-0.12704615 0.03586899 0.13170564 0.030754492 -0.048674714 0.09389325 0.038669687 -0.030313922
-0.13196579 -0.17241372 -0.15874518 0.05066263 0.011123349 0.05979579 -0.19325702 0.046679277
-0.19724573 0.015778458 -0.022427868 -0.043048173 0.036386065 0.20553651 0.09462277 0.08106481
-0.045281883 -0.1782017 -0.0924302 0.14504513 -0.011466142 -0.2100426 0.0246128 -0.026005358
0.13846076 -0.020714166 -0.0069207503 -0.16820376 -0.17984128 0.13511328 -0.027265552 0.05485667
0.04962485 0.023251068 -0.10879786 0.11901963 -0.14836729 -0.04006867 0.009786096 -0.0346167
-0.10843032 0.003509643 -0.033602126 0.038387083 -0.033882055 0.24756326 0.11119156 0.1028597
-0.11858039 -0.08863175 -0.028979918 0.18042645 0.005713758 0.048378345 -0.021818858 0.003460164
-0.12091133 -0.047156937 0.1577658 0.08566523 0.22247013 -0.13816424 -0.22431971 0.19494674
-0.0019432349 -0.0010340577 0.000443834 -0.036284838 -0.014055947 0.16632266 0.022604028 0.14209804
0.12658285 -0.13750176 -0.08686028 -0.14082548 0.08229055 0.09828173 -0.008065091 0.1731481
-0.056122117 -0.11279347 0.15159711 0.19206224 -0.16730933 0.25185308 -0.009105415 0.03792009
-0.19425829 -0.065564305 0.106862396 0.15200834 0.23017848 0.15788794 -0.15469195 -0.049711484
0.02031918 -0.23447974 0.011816785 -0.1515101 -0.06737655 -0.07295175 0.09528986 0.064312
-0.118382074 0.033547696 0.08533039 -0.016942699 0.09358595 0.09438057 -0.01895933 -0.031901028
-0.12711686 -0.054577287 0.10519742 0.044515096 -0.13062797 0.17856713 0.13064641 0.120586894
0.11781812 -0.00720421 -0.15786213 0.013942565 -0.025646249 0.07760059 -0.066737734 -0.16288951
-0.113015376 0.021562345 -0.08809415 -0.034765612 -0.05554388 0.0010314878 -0.048628032 0.14043197
0.014240616 -0.20065074 0.28061613 -0.14544296 0.013824856 -0.02371775 0.09173704 0.033560928
0.24108504 -0.03248457 -0.06389783 0.025330592 -0.06517227 0.17732516 -0.15201057 0.013315017
0.0591503 0.037331127 -0.037126478 -0.031083485 -0.25260106 0.19798642 0.1487256 0.27656472
-0.17701937 -0.07374014 -0.028577005 0.2402874 -0.02388135 0.032555744 -0.09681211 -0.06426038
-0.058891468 -0.15807314 0.10351753 0.06066885 0.09989907 0.09624773 -0.2767461 -0.08584782
0.01928737 -0.041373428 -0.0027673491 0.065351516 -0.01965089 -0.017964374 -0.06534637 0.23777768
-0.056023877 -0.0879145 0.095062755 -0.1561636 -0.116727225 0.0074782176 0.050776605 -0.1096723
-0.2051886 -0.046159357 -0.10051584 -0.1485821 0.14684306 -0.05895716 0.057535905 0.04600241
-0.07724242 -0.07456299 -0.108587824 -0.0628518 -0.039013892 0.10079358 0.0385551 0.17297469
0.15538557 -0.018799974 -0.09043767 -0.008567109 -0.14047141 0.0152815785 -0.084057875 -0.11567214
-0.21310917 -0.016233416 0.0065431814 0.059324846 0.02164544 -0.0901532 -0.08391621 -0.03633041
0.039413456 -0.24232656 0.04773036 0.20240304 0.13579446 0.05527421 0.083733596 0.17001645

oDecoder.oGRU.weight_hh_l0 f4 [96, 32]
00000000: 1a6d 6b3c 613c 5bbe 3172 00be aab2 26be
00000010: 145e 1d3e 72b7 813d 09eb b9bc 0ea7 273e
00000020: 5ea3 55be 709b 4f3d de64 523e b983 bd3d
00000030: f38d 973c 106a 413e ba79 1cbd 85e1 43be
00000040: 8b44 953d b49d 73be fbe6 6bbd 2195 9a3c
00000050: b06f 733e 564a a73d 6bc1 48bd 1960 d3bc
00000060: 1b03 3ebe 86c7 d63d 2106 703e 27dc 14bd
00000070: 5e69 603e b333 f6bc fd43 18be f283 a9bd
00000080: 5d59 b73c c91f 0cbd cb41 193e 0b7c d9bc
00000090: bd45 a23e d519 b63d eabd 1cbd 09d9 97bd
000000a0: 69d0 80bd caf7 873e 3a25 833d 0ab0 fcbd
000000b0: bdc0 1b3e 2334 6bbd 4599 91be 19b3 243e
000000c0: 2d7f 4ebc 551f 17be cf81 533e b011 8bbd
000000d0: 2d8f 363e eceb 353d 82ff 82be 3f95 3cbd
000000e0: df57 c03d 3104 7fbc 70cf 283d 56ca 4f3e
000000f0: bec6 4b3e 6d7c b53c a63c 7dbe d2ba d3bd
00000100: 9ac5 2c3e 88f4 78be f713 163e 6e9e 323c
00000110: bc93 083e 882b 1f3e bbda 8dbd 09c4 943e
00000120: d5e3 9ebd bdf4 353e c05d 603e e8b9 fb3d
00000130: f9ca b33c b057 5d3d 464a 5fba 537b 39be
00000140: 4b1d f5bd 711c 24bd 8cff 163e fcc1 f5bd
00000150: 7f40 b4bd 632f 6e3e 5d02 a8bd ba0b ca3d
00000160: 7515 b83c 12a7 02be 0c3b 033e de85 86bc
00000170: 43a9 e53a 860d c5bd 4e4a 733c da56 45bd
00000180: 1480 dfbd c410 03be ed2a 273e c90d d0bd
00000190: 71e1 e63c 76ce de3d 0592 50bd a5a8 043c
000001a0: 5314 083d 166e 863e 585e 9a3d b1ea 55be
000001b0: f6ca 173e aab0 6c3d 91c4 4dbe c526 b03c
000001c0: 9163 a0be d91b c43c b585 bbbb 3fb4 143e
000001d0: 5c11 9c3d 6f6a 4ebd 951d 18be 30fd ccbd
000001e0: 8a74 0abe 1470 bbbd 0500 9cbd 1ed4 913e
000001f0: c7f4 f0bb a37f 61be d9c9 cfbd 644c bbbd
00000200: 591e 1abe 3afe d73c 75e5 883e eb0f 1d3e
00000210: 7f7e f73c 7644 a63b 9e9f 64bd 3c8a a43d
00000220: b004 67be 4f55 df3d a18c 83bc 48ed 83be
00000230: c5ea 08be 0024 2b3e 7ef9 993d de88 08be
00000240: be3e 783d 1a8c 6bbc 07cf abbd 738b 30bc
00000250: 4c18 9abc be8f 8ebb 5cd6 39be 4ac3 0f3d
00000260: ce5e a5be 0a2b ffbc 46d8 723e 6223 b6bd
00000270: c512 3a3e 4274 54be b428 d2bc 09be b4bd
00000280: 4f71 dfbc b65f 373e 1479 3d3d 4aeb 1e3d
00000290: de1a fcbb f1b7 a13e 927f a7be ef5c 103d
000002a0: 27da d93d c0f9 493e c76a 44be 16fb 9bbd
000002b0: 6081 453d a07b 9f3e 2362 cebd c2c9 e43d
000002c0: 3f5d 42be f43b 8ebe 94d0 893e a2f6 843e
000002d0: af3d 0dbd a2f3 87bd c878 53be 0a75 84bd
000002e0: 8ebf 5dbe 2479 ef3d a1be 7f3e 3905 a43e
000002f0: 5240 b7bc ce5f 3fbd 8035 803c 54b0 4bbd
00000300: bec0 6fbe 16bb 243e e2ff 073e 08b3 bf3d
00000310: 96d1 c1bd 8bc8 4e3e c1e8 93be aa87 2cbe
00000320: 336e 7fbd 871c 8f3d ffad 623d d4a1 04be
00000330: 962c 993a 52f1 643e 923c 40be 2d82 853c
00000340: c01b 07bd a2ac d6bd 8b2b 4d3e 3bc4 323e
00000350: c4f4 8cbc 426e 8fbb f629 fcbc 9566 6ebd
00000360: 1b9c 46be 3a65 afbd 9684 de3d 3670 4e3e
00000370: 7795 833e e22d 08bd 697b 1abe 0861 943e
00000380: 47b5 fc3d c8fc 67bd 5c5d 073e 6214 803d
00000390: ceb8 03bd 0173 6f3e 3a70 c0be 5497 5e3e
000003a0: e9f6 21be 0af0 e6bc 800b 11be 3d4f cebd
000003b0: 32b3 033e 9795 643e 86ce aabb a81f 913d
000003c0: ff66 99be 45c3 d2bd 29c6 c03c 664f 583d
000003d0: c9df 073e ff20 fabc 9a72 74be e281 adbc
000003e0: 77c0 8fbe c889 523e bf6f 313d eb10 be3d
000003f0: dbf0 ea3d a675 79be 3815 9cbd ce39 0a3e
0.014369274 -0.21409751 -0.1254356 -0.16279092 0.15367919 0.063338175 -0.022695081 0.1637232
-0.20863101 0.050685346 0.2054629 0.0925364 0.018500304 0.18888116 -0.038202025 -0.19128998
0.07288464 -0.23790628 -0.057593327 0.018869938 0.23773074 0.08168475 -0.049012583 -0.025802659
-0.18555872 0.10487275 0.23439838 -0.036342766 0.21915194 -0.030053949 -0.14869685 -0.0827712
0.022381479 -0.03421 0.14966504 -0.026548406 0.3169383 0.08891646 -0.038267054 -0.07414443
-0.06289751 0.26556236 0.06403585 -0.12338264 0.15210243 -0.05742277 -0.28437248 0.16083945
-0.012603563 -0.14758046 0.20654987 -0.06790483 0.17828055 0.044414446 -0.25585562 -0.04604077
0.0939176 -0.015564964 0.041213453 0.20292029 0.19900033 0.022154057 -0.24730167 -0.103383675
0.16872254 -0.24312031 0.14656053 0.01090203 0.13337606 0.1554395 -0.06926485 0.29055813
-0.07758299 0.17769141 0.21910763 0.12291318 0.02194737 0.054038703 -0.00085178425 -0.1811345
-0.11968478 -0.040066186 0.14745921 -0.1199989 -0.08801364 0.23260264 -0.08203576 0.09865518
0.022471169 -0.12759045 0.12815493 -0.016421255 0.0017521757 -0.0962172 0.014849259 -0.04817853
-0.10913101 -0.12799364 0.16324969 -0.10158879 0.02818367 0.10879223 -0.050920505 0.008096849
0.033222508 0.26255864 0.07537526 -0.20890309 0.14823517 0.057785667 -0.20094515 0.021502862
-0.31325963 0.02393906 -0.005722726 0.14521883 0.076204985 -0.05039447 -0.14855035 -0.10009229
-0.13521019 -0.091522366 -0.07617191 0.28482145 -0.0073533985 -0.22021346 -0.10145921 -0.0914543
-0.15050639 0.026366342 0.26737562 0.15338103 0.030211685 0.005074079 -0.055816285 0.080341786
-0.22560382 0.10904943 -0.016058268 -0.2576697 -0.13370807 0.16712952 0.0751829 -0.1333346
0.06060671 -0.0143766645 -0.08389097 -0.010775435 -0.018810414 -0.0043506315 -0.18148178 0.03509835
-0.32298893 -0.031148452 0.23715314 -0.088934675 0.18171223 -0.20747474 -0.025654174 -0.08825309
-0.02727571 0.17907605 0.046258047 0.038798608 -0.0076936325 0.3158565 -0.32714516 0.03524488
0.106373124 0.19724178 -0.19181357 -0.0761625 0.048219085 0.31149006 -0.10077312 0.11171295
-0.18980883 -0.27780116 0.26916945 0.25969416 -0.034482654 -0.06638266 -0.20651543 -0.06467636
-0.21655104 0.116930276 0.24975063 0.32035235 -0.022369538 -0.046722226 0.01565051 -0.049728706
-0.23413369 0.16086993 0.13281205 0.093603194 -0.094638035 0.20193689 -0.28888515 -0.16848627
-0.062360954 0.06987863 0.055341717 -0.12952358 0.0011686261 0.22357681 -0.18773106 0.016297424
-0.03298545 -0.10482146 0.20036142 0.17457668 -0.017206557 -0.0043771574 -0.030781727 -0.0582033
-0.19395487 -0.08564229 0.108651325 0.20159993 0.2569997 -0.033246882 -0.1508614 0.2898028
0.123392634 -0.056637555 0.13219208 0.06253888 -0.032158665 0.23383714 -0.37585622 0.21737415
-0.15816845 -0.028190631 -0.14164543 -0.10073707 0.12861326 0.22322689 -0.005212608 0.07086116
-0.29961392 -0.10291151 0.02353199 0.052810095 0.13268961 -0.030533312 -0.23871842 -0.021180097
-0.28076527 0.20560372 0.04331946 0.092805706 0.11471721 -0.24361286 -0.07621235 0.13498613

oDecoder.oGRU.bias_ih_l0 f4 [96]
00000000: 6cbd 3d3c 80af 793e c3df fd3d 18de 463d
00000010: db89 223e 5d4f a33e a73c ad3e d142 a13e
00000020: 25d6 743d 4c24 a1bd b52c 9f3e 52e6 8abc
00000030: 2dff 953e 9f3b 983d 322b 8d3e 46bb 523c
00000040: 64b4 1b3e d020 293e 9158 213d 147b 923e
00000050: f9ab e23d 17b4 663e 2643 a4bd b821 813e
00000060: 35dd ae3d a437 ec3d 0b17 153e 2155 863e
00000070: 74ca 443e d70d 243e d166 18bd e3dd 243e
00000080: 5f92 543e e8f4 4bbe 4ed0 5e3e 4df1 97be
00000090: 1c47 17be c64b 03be e84a 81be 27ac 83be
000000a0: 1cae 11bb 49a0 41be 97b5 3abe c797 5bbc
000000b0: 0f88 2bbe 86cc 75bd 4677 f33d 4d81 93be
000000c0: 78f6 10be 1d2c 09be 593e 65be 4ef1 aebd
000000d0: f600 99bd 2ddc 21be dd4c 0abd 0bc2 6abe
000000e0: 5010 913c a5f0 8bbe 7f1b 983d 13e8 9ebe
000000f0: 9744 a9bc 3dc2 14bd 3644 203e fb6f 913d
00000100: 9aef febc fbed 03be 4b91 d13d 6403 4f3e
00000110: e4fe 053e c96b 0f3e 1fe5 c2bd 10ba ad3d
00000120: 1c1c 45be 135c 18bd 5fc4 3a3d c270 f33d
00000130: 81ab 8cbd f732 443e 1880 a8be 1277 c8bb
00000140: 1deb 26be 5e6d 11be 2879 1a3e f1e9 333e
00000150: d252 863e 2fcf ec3d 77e5 52be 02f3 4dbe
00000160: 3824 32be f2cc da3d 48f5 c43d 729c 433e
00000170: c63f 923d 5ac9 ffbd 0938 56be 3fda 503e
0.011580806 0.24383354 0.12396195 0.04855165 0.158729 0.31896487 0.33835337 0.3149629
0.059774537 -0.07868251 0.31088796 -0.016955528 0.29296246 0.07433247 0.27572018 0.012862032
0.15205532 0.16516423 0.039391104 0.28609526 0.110679574 0.22529636 -0.0802062 0.25221038
0.08538286 0.1153405 0.14559571 0.26236823 0.19217855 0.16020904 -0.03720743 0.16100268
0.20758961 -0.19917643 0.2175915 -0.29676285 -0.1477322 -0.12821874 -0.2525246 -0.2571728
-0.0022229021 -0.189088 -0.18233334 -0.013402886 -0.16751121 -0.060009502 0.11887984 -0.28809586
-0.1415652 -0.13395734 -0.22387065 -0.08542119 -0.074708864 -0.15806647 -0.03376471 -0.22925584
0.017707974 -0.27332035 0.074271195 -0.31036434 -0.020662589 -0.036318053 0.1565102 0.07101437
-0.03112011 -0.12883751 0.102327906 0.20216137 0.13085514 0.1400596 -0.09516358 0.08482754
-0.19249004 -0.037197184 0.04559743 0.11886741 -0.06868649 0.19160067 -0.32910228 -0.00611771
-0.16300626 -0.14201877 0.1508528 0.1756971 0.26235062 0.11562955 -0.20595346 -0.20112231
-0.17396629 0.106836215 0.09617096 0.19102648 0.0714107 -0.12489577 -0.20919813 0.20395754

oDecoder.oGRU.bias_hh_l0 f4 [96]
00000000: f530 813d facc 0b3e 983a 3e3e 0c03 b63c
00000010: 0c5c 743e 159d d83d f28b 6a3e 03dc 923e
00000020: 795b c63d 4b6b ffbd 79df 133d d3e2 28bd
00000030: d2ef 103c 7c77 613e 3242 3d3e 027b c53d
00000040: f459 793e e240 453d 5d45 593d c133 0b3e
00000050: f36d a63e 5980 e23d 4cfc 583c 78cc e33d
00000060: 74ca c03d 1f7e 773d fd2e 653e a336 863e
00000070: ea53 473e 0455 b83d 642f 803e 6153 843e
00000080: 7588 f33d 98ae 37be 6cfe 5a3e 9025 0ebe
00000090: fb03 d93d 8c9d e1bd 06b6 17bd 8eea 05bd
000000a0: d151 67be 3d35 32bc a773 45be 8c36 34bd
000000b0: 814d 7bbb 3f62 a5bd 7b2b 9c3d 1a0f 3bbe
000000c0: 6ab9 ebbd 4971 d8bd fbcb 3dbe 3441 4ebe
000000d0: 03c6 da3b c49c 41be 09c9 273d cd0d 85be
000000e0: efe0 123e 057b b3be 8ed0 a33c 1df1 22be
000000f0: 4280 57be 8291 313e 1cdc 703d 28a0 dc3b
00000100: ee56 ecbd cd49 09bb ea5d da3d 5cb1 a7bd
00000110: e086 a1bd 991c 2b3e 67fb b0be eedf 563d
00000120: 9faf 1abd 5632 2d3e 6ef0 d33d 385a e83d
00000130: ff1e dd3d 7e5a 8d3d 535e acbe a63d 48be
00000140: 3031 7ebe f10a 4abd 491b 4e3e b7c6 193d
00000150: a2e1 953d 3a84 0f3e a66f 18be 8ad9 89be
00000160: b0a7 e4bd 3c45 b83d 37f6 1d3e 66a5 003e
00000170: 5352 483e 746d 18be 86e6 8fbd c7a0 043e
0.06308166 0.13652411 0.18577039 0.02221825 0.23863238 0.10576836 0.22904947 0.2868348
0.09685416 -0.124716364 0.036101792 -0.04123194 0.00884624 0.22018236 0.18482283 0.096426025
0.2435072 0.04815758 0.053044666 0.13593961 0.3250576 0.110596366 0.013243746 0.11122984
0.09413615 0.060423013 0.22381206 0.2621356 0.19465604 0.090005904 0.25036156 0.25844863
0.118912615 -0.17937696 0.21386117 -0.13881516 0.10596462 -0.11016378 -0.037038825 -0.032694392
-0.22589804 -0.010876951 -0.19282399 -0.043997332 -0.0038345756 -0.080753796 0.07625481 -0.1826748
-0.11509974 -0.105684824 -0.18534844 -0.2014206 0.006676437 -0.18907458 0.040963206 -0.25987092
0.14343618 -0.35054794 0.019996908 -0.1591229 -0.2104502 0.17340663 0.058803663 0.0067329593
-0.11540018 -0.002094853 0.10662444 -0.081881255 -0.078870535 0.16710128 -0.34566805 0.05245965
-0.03776514 0.16913733 0.10348593 0.11345333 0.10796928 0.06902026 -0.33665714 -0.19554767
-0.24823451 -0.04932684 0.20127596 0.037543025 0.07318427 0.14015284 -0.1488634 -0.26923782
-0.11164796 0.089975804 0.15425955 0.12563094 0.19562654 -0.14885503 -0.07026391 0.12951957

oDecoder.oLinear.weight f4 [55, 32]
00000000: c58f a93e bff8 df3d c29e 7fbe c784 0bbe
00000010: 63b8 dd3d c8d6 8fbe 93b1 783e 9a61 9dbd
00000020: 66ba 163e ac6c 3bbe 1224 dabd 1ecf ffbd
00000030: 6dd2 3abe 380c 7dbe fc9e a93d bdea 683d
00000040: 9801 5d3e a776 b63d f8c0 5cbe fb4e 85bd
00000050: c6b9 47be 6288 d4bc 3585 ab3d 93c4 0b3e
00000060: f60a 7e3e 5c98 f93d 586c babd b844 1ebe
00000070: 6a21 a1be 945f b03e d6ff 133d e2da d7bd
00000080: acaa 23be 36f6 aabe f326 813e 548c 2e3e
00000090: 5c43 af3e 90ae 033d e3a1 9cbd e6fa fb3d
000000a0: 2f05 90be 2ad5 423e 377f 563e 208d bfbe
000000b0: 9f38 d33d 4db5 82be 91d5 513d f301 46be
000000c0: df05 b8bd 7ff1 063c 0965 efbd d133 1ebe
000000d0: 790f 443d d5f9 963e 0587 c13d 6ff2 0cbe
000000e0: 5a12 6bbe 7962 73be b775 b53e 78ce 40be
000000f0: 4714 2bbe 858b 10bd dfb6 98be 1078 1ebe
00000100: d214 fa3d 45dd 0abd bfd6 91be 8a6b 5ebe
00000110: 1bd3 283e 8c88 b4be bf7a a83e e180 6ebe
00000120: ef6d 583d 15bf 18be 884a 6ebe 3ea7 f2bd
00000130: 0626 3fbe a6b2 adbe a580 bb3d bfce 00bd
00000140: f0b3 e63d 1593 823e de2d 31be 5340 d7bd
00000150: da3e 70be a80c f73d a7f1 8d3d 71c9 a63e
00000160: 803b 7c3e 8105 f63d a523 25be d88a f8bd
00000170: 475e a0bd 1195 673e 1199 763e 194c c2be
00000180: a4b8 1c3e 7a0e 243e 48e9 39be 4e10 90bd
00000190: 182b 38be 71f8 ac3d fdeb f9bd 4064 8dbe
000001a0: c13d 403e 7243 ca3d b3a2 b3be 624b 39bd
000001b0: b5a2 b1be a24d 0c3e a27b 25be 976f 0c3e
000001c0: 6ac9 9abd ba86 443e 1be7 7fbc a0c5 e3bd
000001d0: 7419 95be bc74 94be 4f6c 28be c43b c83d
000001e0: e3dd d43d 310a 873e d216 5fbe bc39 8f3d
000001f0: 0b9c a8bd 1b85 b7bd c750 c83d 2842 ef3d
00000200: b659 a1bc 27fc 933d 4b36 80be e5a2 9bbe
00000210: 5760 b0be aca3 6ebe 0834 a73d 83ef 9ebe
00000220: 82d3 793d 0d4a 533d 4d0c b6bd be22 293e
00000230: 7607 55bd 815d 763e 1cc2 19be d29c cd3d
00000240: b238 c63d 8fe9 243a 3218 02be 5800 c63d
00000250: 4535 68be f2c7 44be 258a 81bd 1478 9c3e
00000260: 59a5 c73d 9063 da3d 8943 04be 46bf 833d
00000270: 3109 e33d dbc8 adbd 8364 923d 69ff 3a3d
00000280: ca7d d43d 55f0 953d 2a0f 67bd 3ae9 dfbd
00000290: daea 153d 0ed1 87be 8d9c 673e 900f acbe
000002a0: 612e 6a3e f444 9b3d c803 6ebe 0958 8e3d
000002b0: a365 35be f7cd fa3d 593f 6e3d b401 933e
000002c0: 2978 613d f8f0 7d3e e1c9 59be e540 c43d
000002d0: edf8 74be 1e1f 5abd 3804 f43d e423 a33c
000002e0: 151c 413d 047c ab3e 5f2d b83d 310b 463b
000002f0: fc59 92bd 6ba4 93bd 1c1a 95bd 0a8d 083e
00000300: d45e c8bd a654 ce3d f7fa 74bd 06fe d7bc
00000310: 458d 98be 1044 99be e508 093e 562f a0be
00000320: 5afc 963e 0dbc b73d 00c3 9dbe f04f 213e
00000330: b6d3 89be 08ca b5bd 07db c13d 4f71 f23d
00000340: d923 973d 4434 cb3c 2ab6 a93d e61d b6bc
00000350: 1a4c 38be 0dc0 39be 1b8d a13d 2cd5 423e
00000360: 6d10 3e3e 8fdb ac3c 3b56 0cbc 8a0b cebc
00000370: 5f19 17bd 38b1 913d cba7 053d 0012 3b3e
00000380: 3a5e 27be d798 443e 1e97 9dbe 0717 88bd
00000390: ce99 cebd 8f44 37be 3fbc 653e c079 93be
000003a0: 4793 413e b3ba a8bd b9c1 8bbe ee51 843e
000003b0: d382 d8bd 6644 6d3d f3a2 2b3e 59f2 b83d
000003c0: 608e b93d 0074 943d b417 3bbe 8c2d 23be
000003d0: b35d cfbd 38e2 5abe d5db 453e b9df 433e
000003e0: a5a3 de3c 8b85 5b3e cb9d d4bd 14d6 a23d
000003f0: b28c f93d c3d3 2abd 9625 d93d db51 91bd
0.331175 0.109361164 -0.24962905 -0.1362487 0.108261846 -0.28093553 0.24286489 -0.07684632
0.14719543 -0.18303174 -0.10651411 -0.12490676 -0.18244334 -0.24711692 0.08282277 0.05686449
0.21582639 0.0890935 -0.21557987 -0.06509205 -0.1950446 -0.025943939 0.083750166 0.13649206
0.24808869 0.12187263 -0.09102696 -0.15455902 -0.31470805 0.3444792 0.036132656 -0.105397955
-0.15983075 -0.3339097 0.25225028 0.17045718 0.3423108 0.032148898 -0.07648065 0.123037145
-0.28128955 0.19026628 0.20946966 -0.37412357 0.10313534 -0.25528947 0.051229063 -0.19336681
-0.08985495 0.008236288 -0.11689193 -0.15449454 0.04786632 0.29487482 0.09449581 -0.13764356
-0.2295622 -0.23768033 0.35441372 -0.18828762 -0.16706954 -0.035289306 -0.2982702 -0.15475488
0.122110024 -0.033902425 -0.2848415 -0.2172071 0.1648678 -0.35260427 0.32906148 -0.23291351
0.052839216 -0.14916642 -0.23270619 -0.11848305 -0.18666849 -0.3392536 0.09155396 -0.03144717
0.11264789 0.2550284 -0.17302653 -0.10510316 -0.23461476 0.12062961 0.06930857 0.32575563
0.24632072 0.120127685 -0.16126879 -0.12135857 -0.07830482 0.22615458 0.24081828 -0.37948683
0.1530481 0.16021147 -0.18155396 -0.0703436 -0.17985189 0.08445824 -0.12203214 -0.27615547
0.18773557 0.098761454 -0.35085067 -0.045237906 -0.34694448 0.1370149 -0.16160443 0.13714443
-0.07557948 0.19192019 -0.015619065 -0.11121678 -0.29120982 -0.2899531 -0.16447566 0.097770244
0.10393884 0.26374963 -0.21786049 0.06993434 -0.08232888 -0.08960935 0.09781032 0.1168254
-0.019696098 0.072258286 -0.25041422 -0.30397716 -0.344485 -0.23304623 0.08164221 -0.31042108
0.060992725 0.051584292 -0.08889065 0.1651716 -0.05200907 0.24059106 -0.15015453 0.10039677
0.096787825 0.00062909065 -0.12704542 0.09668034 -0.2267657 -0.19216898 -0.06325177 0.30560362
0.097483344 0.10663521 -0.12916388 0.06432967 0.110857375 -0.08485576 0.07148077 0.045653734
0.10375555 0.0732123 -0.056410946 -0.10933156 0.036600925 -0.26526684 0.22618313 -0.33605623
0.22869255 0.07581511 -0.2324363 0.06950385 -0.17714553 0.12246316 0.05816588 0.28712237
0.055046234 0.24798954 -0.21268417 0.0958269 -0.23923083 -0.053252332 0.11914867 0.019914575
0.04714592 0.33493054 0.08993029 0.0030219073 -0.071460694 -0.072090946 -0.072803706 0.13335052
-0.09783712 0.10074739 -0.05980965 -0.026366245 -0.2979528 -0.2993474 0.13382299 -0.31286114
0.29489404 0.08971415 -0.30812836 0.1575315 -0.26919335 -0.08876425 0.09465604 0.11838018
0.07379884 0.024805196 0.08286698 -0.022231054 -0.1799778 -0.18139668 0.07888242 0.19026631
0.18560953 0.021100787 -0.008565481 -0.025151987 -0.03688943 0.0711388 0.032630723 0.18268585
-0.16344538 0.19198929 -0.30779356 -0.06645017 -0.1008793 -0.17897247 0.22435091 -0.28803825
0.18903838 -0.08238735 -0.27296236 0.25843757 -0.10571828 0.057926558 0.16761379 0.09030599
0.09060359 0.07248688 -0.18270761 -0.15935344 -0.101252936 -0.21375358 0.1932214 0.19128312
0.027177641 0.21437661 -0.10381659 0.079509884 0.121850386 -0.041705858 0.10602872 -0.07095691

oDecoder.oLinear.bias f4 [55]
00000000: b4f1 e4bd 1378 06bd 1ca5 c7be 8975 11be
00000010: e832 ca3c 4f9a 1dbd 8928 193d bca0 0dbe
00000020: c53e a3bd ec62 42bc b851 14be e446 233d
00000030: 1a43 d33c 503d 6fbc dd10 2ebe 41cb 9dbd
00000040: 71ee 34be 4cba d6bd 8ca2 563d 16a0 acbd
00000050: aaa5 48be 076b 2ebc 69fc 7d3d 0975 cdbd
00000060: bc73 9bbc 0312 19bb cc33 52be fd55 6cbe
00000070: ebb1 e5bd 8bb0 103e 39b6 a33d bc36 acba
00000080: 83f9 823d 23d7 cebc ab31 283c dee7 ad3d
00000090: 004a cbbd 109e 3b3d ebe3 2fbe bb89 2bbc
000000a0: 1df9 e93c a5ff 11be 4ead 81bd 8e59 4fbd
000000b0: 6571 06be fa74 aabe c89c b2bd 68d7 0e3d
000000c0: f4ef 5dbc f886 1c3c 333b 323e 3d56 ecbd
000000d0: 766b fcbd 46d7 afbd 4e6a 3fbe
-0.11178914 -0.032829355 -0.38993156 -0.14204992 0.024682477 -0.03847724 0.037392173 -0.13830847
-0.07970957 -0.011864405 -0.14484298 0.03986253 0.025788832 -0.01460202 -0.1699862 -0.07704783
-0.17669083 -0.10484752 0.05240111 -0.084289715 -0.19594446 -0.0106456345 0.062008295 -0.10032088
-0.018976085 -0.0023356683 -0.20527571 -0.23079677 -0.11215576 0.14129846 0.079937406 -0.0013138871
0.06395247 -0.02524907 0.010265748 0.08491491 -0.09926224 0.045805037 -0.17176788 -0.010469849
0.02856117 -0.14257677 -0.06331883 -0.050622515 -0.13129194 -0.3329237 -0.0872131 0.034873396
-0.013545979 0.009553663 0.17405395 -0.11539886 -0.12325184 -0.08585982 -0.18692896
