Deep_11_13/Ex6/OneToMany.pt (torch, 39439 bytes, 8 tensors)

oEmbedding.weight f4 [55, 32]
-0.30704832 0.9566693 2.3440754 0.29260683 -2.6399436 -0.68239087 0.14661966 1.8371209
0.32637095 1.1563051 0.031858496 -0.84867525 2.0989704 0.47200662 -1.3678005 1.2440974
1.6346961 -0.50893 1.5458406 -0.076694466 -1.6689008 0.14750078 2.2131186 0.618811
-0.52058315 0.15708551 -2.0392594 2.0230303 -0.45870638 0.8263042 0.80828595 -0.31202337
1.7677782 0.99474484 1.4042559 0.747987 -3.0442173 -0.41910812 -0.27733928 -0.21010157
-1.0635808 -0.6412586 0.2765865 -0.6439469 -0.17314763 1.0561346 1.2834703 -0.64753425
1.6844279 0.37205288 -0.75813025 0.18924661 -0.8441757 -0.882215 -1.0122162 1.8400469
-0.29868644 1.2104709 -0.9572799 0.47468284 1.194648 -1.2562314 1.4674077 1.1034138
0.29840857 -1.3281426 0.50793964 0.12745556 -0.75761366 1.481721 -0.5840052 1.6744094
0.45720565 -0.5546335 0.110803664 1.7727458 0.1309625 1.8129705 -1.8706827 0.8209648
-1.108812 -0.6516545 0.75038487 0.22587879 0.8553466 0.8850359 0.33296642 1.4406893
0.70884454 -1.250974 -1.1011204 0.055798102 0.13507025 -0.049405456 -1.070921 -0.8056724
0.26636282 0.1815028 0.1521693 -0.08482601 -0.14820267 1.568298 0.6279758 1.665545
-1.0246557 0.567776 0.08464869 0.9446838 0.4491492 1.5385544 -0.28320718 -0.17346644
-1.2429357 1.4639566 -0.62513286 2.3413033 -2.6301425 -0.06813751 0.8372044 -0.4506032
-1.5059689 -1.163845 0.23203255 0.07955781 0.025924943 -0.029801678 -1.9728795 -1.4893073
0.44176063 -1.4869696 -1.5766201 -0.54019415 0.61863226 0.20184273 0.23958752 0.5751954
1.0244428 0.8333384 -0.5124053 0.6046856 1.2125798 -0.26643082 -1.7223552 0.31542176
1.7148092 0.94766176 -1.1207304 0.8067665 -2.3139422 -0.9088347 -1.2656207 0.5830542
-0.22465244 -2.0178146 -0.26855832 0.51514006 0.53766155 1.1438781 -2.355741 -0.38016564
-0.5885952 -0.031073987 -0.7371471 -1.7976829 -0.11874764 0.6466144 -1.0068496 -0.278339
-0.29685816 0.87802804 1.2750357 0.12755345 -0.99230266 -0.45003483 1.7674626 -2.0113535
-0.5391441 -0.64910716 -0.59816515 -0.7730479 1.5801226 -0.24357885 -0.030838724 -1.0664387
0.013231936 0.79674745 1.6152028 -0.52299035 -0.31259203 2.3868086 0.21424915 1.2238071
-2.2485209 1.4674824 -0.97454023 -0.18103099 -1.9976276 -0.32049844 1.0673281 -1.3039403
-1.1113247 -1.1778622 0.8436907 0.28033024 0.5622848 0.84821117 -1.94307 1.0189704
-1.1754142 1.2878597 1.8280522 -0.06627989 -0.2759424 0.3207026 1.2018977 0.017015079
1.1109481 1.354641 -0.7848687 0.032071643 0.804891 0.94937825 -0.45035243 1.093207
-2.093718 1.5437751 -0.8607934 -1.4331009 0.64504397 0.62563205 -0.38114563 0.22939564
-0.79519045 1.3426901 -1.3791869 1.4256128 -0.7973933 1.1489846 -0.17710972 -1.196197
-1.4799663 -1.6489459 -1.529583 1.1884645 1.6439905 1.4040096 0.64767087 0.8529334
-0.80172706 -1.3051641 -0.8522828 0.8720947 1.0976509 0.7193803 0.9116991 0.7796456
00000000: 7035 9dbe 47e8 743f 5505 1640 90d0 953e
00000010: d6f4 28c0 2bb1 2ebf 7723 163e c726 eb3f
00000020: 181a a73e ce01 943f 0e7e 023d c842 59bf
00000030: 8855 0640 daaa f13e 1614 afbf 953e 9f3f
00000040: b93d d13f 3d49 02bf 1bde c53f fd11 9dbd
00000050: 8b9e d5bf 720a 173e bca3 0d40 666a 1e3f
00000060: f044 05bf 06db 203e 3a83 02c0 5479 0140
00000070: 90db eabe ac88 533f d4eb 4e3f 87c1 9fbe
00000080: 8e46 e23f 99a7 7e3f a8be b33f 137c 3f3f
00000090: 75d4 42c0 5795 d6be 6aff 8dbe de24 57be
000000a0: 6a23 88bf 8629 24bf bf9c 8d3e b4d9 24bf
000000b0: 9d4d 31be 6b2f 873f c148 a43f cec4 25bf
000000c0: 559b d73f b77d be3e d314 42bf ddc9 413e
000000d0: e61b 58bf d8d8 61bf 4d90 81bf a886 eb3f
000000e0: 6eed 98be b6f0 9a3f 4c10 75bf a109 f33e
000000f0: 3aea 983f 31cc a0bf 04d4 bb3f aa3c 8d3f
00000100: 02c9 983e 9400 aabf 5508 023f b683 023e
00000110: f8f2 41bf 09a9 bd3f 5d81 15bf 0c53 d63f
00000120: dc16 ea3e 76fc 0dbf 08ed e23d 56e9 e23f
00000130: 091b 063e 6b0f e83f 8872 efbf c02a 523f
00000140: 8ded 8dbf d4d2 26bf 3919 403f c54c 673e
00000150: fff7 5a3f b691 623f 937a aa3e 8268 b83f
00000160: d676 353f eb1f a0bf 83f1 8cbf 8d8c 643d
00000170: db4f 0a3e 605d 4abd f013 89bf 8c40 4ebf
00000180: b560 883e dfdb 393e 45d2 1b3e 42b9 adbd
00000190: 71c2 17be fdbd c83f 06c3 203f 9430 d53f
000001a0: eb27 83bf c559 113f 4b5c ad3d ccd6 713f
000001b0: e2f6 e53e 5aef c43f 8800 91be 30a1 31be
000001c0: 8418 9fbf ee62 bb3f b508 20bf ead7 1540
000001d0: 4154 28c0 ae8b 8bbd 0753 563f 76b5 e6be
000001e0: 97c3 c0bf dff8 94bf f199 6d3e 35ef a23d
000001f0: 8c60 d43c a622 f4bc 5187 fcbf 9fa1 bebf
00000200: 732e e23e 0555 bebf b0ce c9bf 2a4a 0abf
00000210: af5e 1e3f dcaf 4e3e 6e56 753e 0140 133f
00000220: f120 833f aa55 553f fe2c 03bf adcc 1a3f
00000230: d135 9b3f 9f69 88be 2376 dcbf f67e a13e
00000240: de7e db3f f699 723f 1874 8fbf 4088 4e3f
00000250: a117 14c0 64a9 68bf dcff a1bf 0a43 153f
00000260: 4a0b 66be e023 01c0 7a80 89be 38e0 033f
00000270: 30a4 093f 996a 923f 76c4 16c0 12a5 c2be
00000280: 2dae 16bf e08e febc acb5 3cbf 791a e6bf
00000290: f631 f3bd 8588 253f 73e0 80bf 7382 8ebe
000002a0: cbfd 97be 72c6 603f 5f34 a33f 5f9d 023e
000002b0: 8c07 7ebf f76a e6be 373c e23f 04ba 00c0
000002c0: 5905 0abf e32b 26bf 5a21 19bf 78e6 45bf
000002d0: 7541 ca3f bc6c 79be 7ea1 fcbc 1081 88bf
000002e0: c3ca 583c a4f7 4b3f f7be ce3f b2e2 05bf
000002f0: 100c a0be 79c1 1840 2164 5b3e b6a5 9c3f
00000300: c4e7 0fc0 77d6 bb3f 787b 79bf 3060 39be
00000310: 43b2 ffbf 5f18 a4be 359e 883f 84e7 a6bf
00000320: e33f 8ebf 30c4 96bf 1dfc 573f 7287 8f3e
00000330: e6f1 0f3f 5e24 593f 85b6 f8bf 9f6d 823f
00000340: f973 96bf 96d8 a43f 9dfd e93f c0bd 87bd
00000350: 5248 8dbe 2233 a43e c9d7 993f 3563 8b3c
00000360: 8c33 8e3f e064 ad3f 28ed 48bf 8e5d 033d
00000370: 560d 4e3f 740a 733f 9894 e6be 35ee 8b3f
00000380: 7aff 05c0 6c9a c53f f55c 5cbf da6f b7bf
00000390: 9a21 253f 6c29 203f 8525 c3be b1e6 6a3e
000003a0: 9a91 4bbf 45dd ab3f 3289 b0bf 7b7a b63f
000003b0: f821 4cbf ed11 933f 405c 35be fc1c 99bf
000003c0: 896f bdbf a910 d3bf 60c9 c3bf 9b1f 983f
000003d0: 486e d23f 96b6 b33f c2cd 253f d859 5a3f
000003e0: fc3d 4dbf 9e0f a7bf 352f 5abf 9941 5f3f
000003f0: d37f 8c3f 4f29 383f 1d65 693f db96 473f

oDecoder.oEmbedding.weight f4 [55, 16]
-0.69865036 1.8586242 -1.6369017 1.97359 -1.4558221 0.5114646 -0.6980596 -2.0678291
1.9473044 0.10649133 -1.5850849 1.4379486 -1.1266725 -0.78733146 -0.5328316 -0.5088098
1.1133848 -1.143672 0.54741853 -0.586214 0.4170218 -1.2440286 1.1393285 0.16776843
0.15441251 -0.19797778 -2.025903 0.18488555 0.14211766 -1.4672377 -0.32433313 -0.7454018
-0.7007317 -1.280179 -0.5881082 -0.43144554 0.33271536 0.5229713 -0.5597896 1.9485317
-0.23155227 1.2106676 1.4727533 -0.8508163 0.75656307 0.7769742 -0.97512954 -0.90091044
-0.05245203 0.39498684 0.117526114 -2.2615104 0.43704274 1.21851 1.5303557 1.8587146
-0.05198783 0.39986536 -0.3277104 0.13583776 -0.98697174 -0.62855387 0.01688445 -0.6926527
2.2490873 0.7218049 -0.8548471 0.3921858 0.9165606 0.5025133 0.62381035 -1.6964364
-1.2526195 2.5331743 0.20831284 -0.25430393 -0.8426888 0.8586482 -1.5272896 -0.44344908
-0.82624257 1.6676835 -0.21369532 -0.5597921 0.9170842 -2.2573197 1.0511796 -2.4117377
-1.8798907 2.1725216 1.3707384 -0.5177949 0.20962435 -0.70045507 0.3542599 0.7028366
-0.34401342 0.86592174 -1.4445102 -0.3686771 -0.06077025 -2.0051715 1.8650622 -0.34724852
-0.4452916 0.56968033 0.11124494 0.97619444 1.4477677 -0.6450758 -1.0485094 -0.888513
0.34365618 -0.45180434 0.53440624 0.9867321 1.0918974 1.4678448 1.0980619 -0.40878338
-1.2096219 -0.51987594 -0.9758208 -0.25157195 -0.09654142 -0.33469906 2.211699 -1.2617277
0.03890436 1.451751 -0.82088506 -0.36229602 -0.1746461 -0.054210015 1.217152 1.0603288
0.3085458 0.44354773 -0.049210306 0.80575037 0.5460246 1.1339867 -1.3573562 2.2090847
0.07626672 0.30697614 0.21582486 0.9517499 -0.85216707 0.04021541 0.9200464 -1.2709466
-1.2721176 -1.0920285 1.627394 -1.2872568 -1.4575632 1.6317208 -1.6271224 1.4275739
0.9539636 -0.7771567 -0.8268133 -0.3747423 0.1603882 -0.6084688 0.39791268 -0.72092927
1.4044617 -0.99988496 2.228986 0.4346019 0.32006028 1.1550945 -0.9132896 0.4501099
-0.23011912 0.44816345 0.072948806 0.86251134 1.3599645 0.8798219 1.0185161 -0.63528544
0.3928801 0.7225297 -1.6180987 -0.58448404 0.36898753 1.1515844 1.6625972 0.42479873
0.95739293 0.42351484 -0.6917325 -1.9369524 -0.6177728 1.482287 -1.1334597 -1.0133412
-1.0401002 -0.12412668 2.1805613 0.8626382 -0.32252842 1.3602372 -0.73224247 0.64338684
-0.29441026 0.20337676 -0.33826143 0.5769494 0.03400278 0.34839347 0.9219362 -0.01187136
-1.0747006 2.7410827 0.8531064 0.2530669 1.7097417 -1.2438982 -2.227356 0.96730024
0.50526583 -1.1548456 -0.3671821 -0.7824671 -2.0884094 0.12175219 -0.0340396 -0.758901
-0.83394474 0.32579607 -0.2845352 -0.8872331 1.4549873 -0.17254296 0.4554445 -1.9946499
1.7478815 -0.9645572 0.13605638 -0.9252822 -0.438128 -0.9589852 -1.0634419 1.362072
0.1975729 1.4940988 -0.874384 -0.89709395 -0.2739896 -0.51209974 -2.4672644 0.91343254
00000000: c0da 32bf 66e7 ed3f ff85 d1bf 999e fc3f
00000010: 6158 babf 58ef 023f 09b4 32bf 5057 04c0
00000020: 4541 f93f 2018 da3d 10e4 cabf b30e b83f
00000030: ce36 90bf 8e8e 49bf a767 08bf 5c41 02bf
00000040: 6583 8e3f d863 92bf 9f23 0c3f 1f12 16bf
00000050: e283 d53e 543c 9fbf 84d5 913f 7dcb 2b3e
00000060: 501e 1e3e b0ba 4abe 65a8 01c0 a352 3d3e
00000070: 4b87 113e 72ce bbbf fe0e a6be a7d2 3ebf
00000080: 2763 33bf e8dc a3bf 428e 16bf 6ee6 dcbe
00000090: ab59 aa3e 72e1 053f 5f4e 0fbf 7d69 f93f
000000a0: 0a1c 6dbe 28f7 9a3f 2e83 bc3f 19cf 59bf
000000b0: 1eae 413f c8e7 463f 17a2 79bf 11a2 66bf
000000c0: f1d7 56bd b73b ca3e 88b1 f03d 96bc 10c0
000000d0: 11c4 df3e 23f8 9b3f b2e2 c33f 5cea ed3f
000000e0: 31f1 54bd 27bb cc3e a8c9 a7be 0e19 0b3e
000000f0: 2eaa 7cbf e8e8 20bf 4251 8a3c b051 31bf
00000100: 0cf1 0f40 35c8 383f 42d7 5abf 94cc c83e
00000110: b7a3 6a3f b6a4 003f 09b2 1f3f d424 d9bf
00000120: d655 a0bf 871f 2240 f64f 553e 2034 82be
00000130: 74ba 57bf 5ed0 5b3f 3a7e c3bf c20b e3be
00000140: a284 53bf a776 d53f f2d2 5abe 894e 0fbf
00000150: 08c6 6a3f ed77 10c0 0e8d 863f e959 1ac0
00000160: 42a0 f0bf 980a 0b40 5b74 af3f 358e 04bf
00000170: c4a7 563e 0651 33bf 8e61 b53e 19ed 333f
00000180: 8722 b0be 0cad 5d3f b6e5 b8bf 3fc3 bcbe
00000190: 3aea 78bd bb54 00c0 5cba ee3f 8fca b1be
000001a0: 43fd e3be 92d6 113f 63d4 e33d e1e7 793f
000001b0: 7450 b93f b023 25bf 8e35 86bf 9775 63bf
000001c0: b4f3 af3e e652 e7be d9ce 083f 7a9a 7c3f
000001d0: 4bc3 8b3f 57e2 bb3f 4b8d 8c3f 0e4c d1be
000001e0: e4d4 9abf 9716 05bf 64cf 79bf 0ace 80be
000001f0: 82b7 c5bd ad5d abbe 7a8c 0d40 4b80 a1bf
00000200: 2e5a 1f3d fad2 b93f 8625 52bf dd7e b9be
00000210: 6dd6 32be 520b 5ebd a3cb 9b3f dbb8 873f
00000220: b7f9 9d3e b018 e33e bf90 49bd a845 4e3f
00000230: 45c8 0b3f 7a26 913f d9bd adbf a561 0d40
00000240: ba31 9c3d fa2b 9d3e 3101 5d3e e2a5 733f
00000250: 9f27 5abf eab8 243d 2988 6b3f 61ae a2bf
00000260: c0d4 a2bf 97c7 8bbf 724e d03f d5c4 a4bf
00000270: 6e91 babf 3adc d03f 8c45 d0bf beba b63f
00000280: f536 743f bef3 46bf 09aa 53bf 39de bfbe
00000290: ce3c 243e 9cc4 1bbf 36bb cb3e d28e 38bf
000002a0: 67c5 b33f 76f8 7fbf b5a7 0e40 2484 de3e
000002b0: f1de a33e 23da 933f 59cd 69bf ce74 e63e
000002c0: 59a4 6bbe ae75 e53e 2f66 953d 8bcd 5c3f
000002d0: 5113 ae3f 023c 613f bc5e 823f 11a2 22bf
000002e0: 9527 c93e b5f7 383f dc1d cfbf bfa0 15bf
000002f0: efeb bc3e 1e67 933f fccf d43f 387f d93e
00000300: b417 753f f0d6 d83e 6215 31bf 0eee f7bf
00000310: 5c26 1ebf 95bb bd3f 3515 91bf 2ab5 81bf
00000320: 0122 85bf 2136 febd 518e 0b40 dbd5 5c3f
00000330: 7222 a5be 411c ae3f 3e74 3bbf 00b5 243f
00000340: f1bc 96be ff41 503e 9a30 adbe f5b2 133f
00000350: 8046 0b3d a160 b23e 0304 6c3f 1880 42bc
00000360: ca8f 89bf e66d 2f40 2e65 5a3f fc91 813e
00000370: d1d8 da3f 0e38 9fbf 008d 0ec0 fda0 773f
00000380: 1a59 013f fbd1 93bf 4bff bbbe c44f 48bf
00000390: 80a8 05c0 3659 f93d 1c6d 0bbd 5647 42bf
000003a0: 677d 55bf bece a63e 99ae 91be b521 63bf
000003b0: 063d ba3f 1aaf 30be 0630 e93e b050 ffbf
000003c0: 95ba df3f 38ed 76bf 5d52 0b3e 4bdf 6cbf
000003d0: 5052 e0be 0e80 75bf dd1e 88bf 6058 ae3f
000003e0: 8d50 4a3e a13e bf3f a1d7 5fbf f3a7 65bf
000003f0: 5d48 8cbe f818 03bf a9e7 1dc0 b7d6 693f

oDecoder.oGRU.weight_ih_l0 f4 [96, 16]
-0.22127807 -0.83168966 0.41753235 -0.32083192 0.07237224 0.3849215 -0.25926125 -0.09736808
0.19050048 0.5974135 -0.36438993 -0.16108286 -0.38773343 -0.15133142 0.19635867 0.30724543
0.010845434 0.025469612 0.45047224 -0.036187805 -0.036283955 0.12695932 0.025153538 0.028612254
0.14409988 0.03964179 -0.41274276 -0.17435968 0.0800967 -0.34707057 -0.46694475 -0.30551925
-0.21900985 -0.34421742 0.12764569 0.5178206 0.079165496 -0.20855449 -0.352591 0.19677477
-0.39550245 -0.19694717 0.21367845 0.1948423 0.24545927 -0.2715408 0.613564 -0.21999425
-0.0072912504 -0.42811304 -0.12905388 -0.14393024 -0.034908686 0.18223009 0.29363865 -0.17632908
0.85093236 -0.28061768 0.48388678 -0.148501 -0.09906798 -0.126317 -0.60068744 0.25773838
0.31376034 -0.28684354 0.2399721 -0.2575313 -0.30343002 0.5538058 -0.46342376 0.03333273
-0.08370967 0.2058295 0.38509646 -0.4405658 -0.2903325 0.19504127 -0.46689367 -0.08441522
-0.4340972 -0.5074612 0.68022746 0.1847947 0.2693104 -0.4666293 -0.3663079 -0.036564674
-0.13926919 0.06510909 -0.06672209 -0.17875184 -0.08452089 0.49517268 0.27473173 -0.35461354
0.20913678 0.20376171 0.38965386 0.6001175 0.3533647 0.06658817 -0.21414188 0.90332925
-0.618158 0.9284276 -0.063932486 -0.081364855 0.87572205 0.098724015 -0.8141939 -0.39074266
0.2051262 0.27008298 -0.67320585 0.23438975 -0.13299125 -0.055748336 0.19069657 0.4558567
-0.3395128 -0.3223077 0.84509015 -0.26779297 0.47827324 -0.18186072 0.17712414 -0.7835367
-0.016702058 -0.09474864 -0.19810975 0.09470036 -0.4789278 0.088053085 0.07636856 -0.06997082
0.4229103 -0.117350794 -0.19597161 0.46510932 -0.27315423 -0.29999793 -0.07268812 -0.30789438
-0.34737122 -0.22215898 -0.104133174 0.08313649 -0.21907239 -0.50331205 0.129118 0.002049091
0.051097553 -0.0007615694 -0.15064713 -0.017650386 0.1489218 -0.625523 0.36536643 -0.69546646
-0.33845437 -0.17874274 -0.040752426 0.30341712 0.24286215 -1.2134982 -0.44362625 0.11156033
0.335486 -0.14593287 -0.17204584 0.00641874 0.35724524 0.2442008 -0.16672575 -0.05889938
0.38093 -0.3561265 0.3737913 0.0549644 -0.22645342 -0.13409501 0.32990646 0.08475452
-0.32399422 -0.20725375 0.41390657 -0.25191694 -0.12527482 -0.21047617 -0.42820114 -0.051578257
0.23305495 0.055292703 0.66009134 0.11530838 0.20741028 -0.811491 0.2070244 0.34550312
0.0046218336 0.18016163 -0.09110567 -0.0061758156 0.102393866 0.24777189 0.35732034 -0.25222117
-0.32770476 -0.31834975 0.03615763 0.16664785 -0.5934246 -0.20171915 0.15807499 0.0071323216
0.37545145 -0.10856886 -0.53035206 -0.25197756 -0.11295641 0.38929427 -0.45568228 -0.15826789
0.26944226 0.11159141 0.42551312 -0.024228401 -0.08656977 0.3761005 0.068835616 0.42489183
0.0021472902 -0.39162254 -0.012893846 -0.27172756 -0.12503493 0.15063722 -0.48805305 0.093509346
0.17997248 -0.008503287 -0.073340036 -0.38752627 -0.149018 -0.18978901 -0.15668054 -0.20006403
-0.3111297 -0.2162441 0.23268665 -0.23761152 0.03707519 -0.45132056 -0.07300336 -0.015216059
00000000: b896 62be 9de9 54bf cdc6 d53e 1544 a4be
00000010: e637 943d 6e14 c53e e4bd 84be ea68 c7bd
00000020: 8f12 433e 17f0 183f 5191 babe e8f2 24be
00000030: ff84 c6be a0f6 1abe 3f12 493e 464f 9d3e
00000040: 0cb1 313c a6a5 d03c 4ca4 e63e aa39 14bd
00000050: 7c9e 14bd a001 023e cb0e ce3c 3f64 ea3c
00000060: eb8e 133e 6e5f 223d 0553 d3be 588b 32be
00000070: bd09 a43d 3cb3 b1be 6213 efbe 056d 9cbe
00000080: 1e44 60be 443d b0be 8db5 023e e48f 043f
00000090: 8521 a23d 4f8f 55be cf86 b4be 537f 493e
000000a0: 4c7f cabe 85ac 49be 86ce 5a3e bd84 473e
000000b0: ad59 7b3e 6507 8bbe 8812 1d3f 2c46 61be
000000c0: 71eb eebb a231 dbbe b326 04be 7362 13be
000000d0: 69fc 0ebd 869a 3a3e ce57 963e 9c8f 34be
000000e0: b4d6 593f 1fad 8fbe 02c0 f73e a510 18be
000000f0: 27e4 cabd 3e59 01be a7c6 19bf 49f6 833e
00000100: 32a5 a03e 28dd 92be 3fbb 753e 24db 83be
00000110: 2e5b 9bbe 38c6 0d3f e145 edbe e787 083d
00000120: fa6f abbd f8c4 523e 5d2b c53e d791 e1be
00000130: 76a6 94be e6b8 473e b00c efbe e3e1 acbd
00000140: fd41 debe fae8 01bf 6323 2e3f d23a 3d3e
00000150: 0ee3 893e 09ea eebe b68c bbbe d7c4 15bd
00000160: 959c 0ebe ea57 853d 97a5 88bd b90a 37be
00000170: 4a19 adbd 4687 fd3e a3a9 8c3e e88f b5be
00000180: f427 563e e9a6 503e b680 c73e 4da1 193f
00000190: 38ec b43e 615f 883d 0248 5bbe 9640 673f
000001a0: 9a3f 1ebf 6ead 6d3f 09ef 82bd 9ea2 a6bd
000001b0: 522f 603f d12f ca3d 036f 50bf 6c0f c8be
000001c0: 9a0c 523e 5148 8a3e 3857 2cbf de03 703e
000001d0: dc2e 08be 5e58 64bd f645 433e 0d66 e93e
000001e0: 9fd4 adbe 8405 a5be d457 583f 291c 89be
000001f0: 3be0 f43e b239 3abe 0860 353e dc95 48bf
00000200: c1d2 88bc 930b c2bd 48dd 4abe 43f2 c13d
00000210: 0636 f5be 2d55 b43d 1f67 9c3d dc4c 8fbd
00000220: b387 d83e 9d55 f0bd c8ac 48be cf22 ee3e
00000230: dfda 8bbe 5499 99be 82dd 94bd 55a4 9dbe
00000240: a4da b1be a57d 63be c643 d5bd 7743 aa3d
00000250: 8354 60be 0fd9 00bf 8237 043e 0b4a 063b
00000260: ab4b 513d 0fa4 47ba 3e43 1abe 8b97 90bc
00000270: f57e 183e 4622 20bf 4f11 bb3e 170a 32bf
00000280: e449 adbe 5608 37be 04ec 26bd 7d59 9b3e
00000290: dbb0 783e e953 9bbf fb22 e3be be79 e43d
000002a0: d2c4 ab3e 6d6f 15be c92c 30be 4b54 d23b
000002b0: d9e8 b63e c60f 7a3e 28ba 2abe 7a40 71bd
000002c0: 4209 c33e 3656 b6be 9361 bf3e 5a22 613d
000002d0: 68e3 67be 3450 09be 80e9 a83e c793 ad3d
000002e0: 92e2 a5be 543a 54be 90eb d33e 42fb 80be
000002f0: 0b48 00be 1187 57be 2e3d dbbe b943 53bd
00000300: f5a5 6e3e 9a7a 623d bffb 283f cd26 ec3d
00000310: 5c63 543e e0bd 4fbf 34fe 533e c9e5 b03e
00000320: c072 973b 4a7c 383e 9c95 babd 7f5e cabb
00000330: e0b3 d13d eab7 7d3e b1f2 b63e 2223 81be
00000340: ebc8 a7be bdfe a2be 061a 143d bca5 2a3e
00000350: adea 17bf 778f 4ebe 69de 213e 40b6 e93b
00000360: 2c3b c03e 5a59 debd 27c5 07bf 3403 81be
00000370: b155 e7bd 9451 c73e 304f e9be fa10 22be
00000380: 56f4 893e 0a8a e43d dbdc d93e a47a c6bc
00000390: 7e4b b1bd 3f90 c03e b0f9 8c3d 6c8b d93e
000003a0: 8db9 0c3b c082 c8be b640 53bc e01f 8bbe
000003b0: 2809 00be a540 1a3e 17e2 f9be d481 bf3d
000003c0: b54a 383e 5f51 0bbc 4d33 96bd d869 c6be
000003d0: 2d98 18be 0d58 42be dd70 20be 96dd 4cbe
000003e0: 644c 9fbe 186f 5dbe 6945 6e3e 6f50 73be
000003f0: 28dc 173d 7d13 e7be c982 95bd c74c 79bc

oDecoder.oGRU.weight_hh_l0 f4 [96, 32]
0.2523813 -0.3508067 0.027745316 -0.06022617 0.12774089 -0.21975361 -0.17149891 0.26855528
-0.09828794 -0.20414953 -0.04124364 0.22754343 0.0112099415 0.0068250136 0.14065889 -0.016337236
0.17883779 -0.66696656 0.21587317 -0.15595712 0.08810195 0.39801297 -0.2255884 -0.6304218
0.7883708 0.28502965 0.026286788 0.25465223 0.7377172 -0.24901398 0.08804055 0.29970923
0.0612597 0.02031685 -0.21056223 -0.17198396 -0.19684972 0.09088295 0.20555979 0.051016998
-0.24702318 0.58474046 0.6372308 0.07123302 0.13764344 0.16429186 -0.46793166 -0.21800299
-0.029563526 -0.44888663 0.42333472 -0.18133983 -0.64869773 -0.4066297 0.06441813 0.35438576
-0.23658034 0.14566278 -0.22434469 0.44146997 0.047103703 0.1218954 -0.3743525 -0.62771153
0.064398415 -0.09709285 0.057556234 -0.018757755 0.53802913 -0.017009819 -0.3159976 0.27011558
-0.012828414 -0.26445922 -0.36960322 0.17694287 -0.20724057 -0.15471083 0.8690098 -0.13262658
-0.25710124 0.29102138 0.051126633 -0.50094944 -0.16448128 -0.06991232 -0.34379134 0.096002035
0.12106769 0.09206918 -0.1443615 -0.124888204 -0.3386096 0.31075227 -0.31492013 -0.40650293
-0.41839877 -0.24720143 -0.7546128 -0.0657602 0.10016681 0.23355547 0.83954453 -0.21987544
-0.04361 -0.050706778 -0.16201575 0.44728735 -0.24384403 0.091413856 -0.6309004 -0.060389116
-0.02509587 -0.60092676 0.10870186 -0.06353419 -0.25258774 0.6564888 0.08277976 -0.18768162
0.014387918 -0.11909618 0.28585914 0.13237914 -0.17467561 -0.013790389 -0.37303495 0.39218682
-0.5303581 0.043757476 0.038355865 -0.5324735 -0.011911456 -0.15617256 0.28032094 0.031808052
0.03512996 0.26894215 0.42273784 0.021293778 0.21721633 0.11503982 -0.26409346 -0.2786552
0.3763455 -0.4339024 0.2905689 0.04704364 -0.8444104 -0.31219268 -0.055736296 0.44858792
-0.3567659 -0.09871894 -0.3380091 -0.12751909 -0.4190201 -0.042967346 -0.513812 -0.44951305
-0.18920632 -0.49735117 -0.2666716 0.013402457 -0.02743014 -0.19005091 -0.04046448 0.24191332
-0.01974171 0.17758127 0.3847324 -0.14621107 0.19480552 0.0106260255 0.2491312 0.0847197
-0.15014173 0.12223527 -0.406227 0.120779954 -0.09332098 -0.18836139 0.023394171 -0.20215902
0.124146745 0.20015596 -0.016056618 -0.14719816 0.5531994 0.15596531 0.21831037 0.6503534
-0.28095946 0.42968032 -0.38426602 0.14625773 -0.4149387 0.18554057 0.030313075 0.08834863
-0.24073054 0.03570504 -0.41037157 -0.29664803 -0.1935022 0.0016156326 0.39334825 0.17882648
0.04297043 -0.16372792 0.7191181 0.33225885 0.16183881 0.46942675 0.03174622 -0.18870375
-0.16090077 -0.22374062 -0.70709115 -0.08756098 -0.0018172435 -0.44590202 0.00983935 -0.16127202
0.010224997 0.017738635 -0.2615088 -0.33995384 -0.58877766 -0.1117 0.24012382 -0.3650321
-0.18693465 0.38705003 0.64634 -0.30866387 -0.28936166 0.06801522 -0.50074625 0.1453409
-0.062430542 -0.1492332 0.2258916 -0.1218285 -0.55155146 -0.1540651 -0.019816395 0.49620813
-0.27272266 -0.27463582 0.07436197 -0.3717399 -0.17345585 0.003767142 -0.36499926 -0.2578882
00000000: 1f38 813e f09c b3be 254a e33c b7af 76bd
00000010: 82ce 023e 1707 61be 699d 2fbe 1480 893e
00000020: 304b c9bd 930c 51be 17ef 28bd 2501 693e
00000030: e7a9 373c 5da4 df3b e208 103e abd5 85bc
00000040: 4121 373e 52be 2abf db0d 5d3e 39b3 1fbe
00000050: cc6e b43d 5bc8 cb3e a500 67be 5363 21bf
00000060: abd2 493f 68ef 913e 6457 d73c c761 823e
00000070: 09db 3c3f 85fd 7ebe 9b4e b43d 7d73 993e
00000080: 74eb 7a3d 866f a63c a09d 57be 901c 30be
00000090: f992 49be d720 ba3d 447e 523e 33f7 503d
000000a0: a5f3 7cbe 8db1 153f 8f21 233f 9ee2 913d
000000b0: 67f2 0c3e 203c 283e bd94 efbe 2d3c 5fbe
000000c0: 352f f2bc 78d4 e5be 54bf d83e 26b1 39be
000000d0: 0e11 26bf c531 d0be a7ed 833d 0d72 b53e
000000e0: 1e42 72be a028 153e 9dba 65be 5a08 e23e
000000f0: d0ef 403d 4ca4 f93d 22ab bfbe b4b1 20bf
00000100: 51e3 833d 9ed8 c6bd 16c0 6b3d dda9 99bc
00000110: 47bc 093f 2d58 8bbc 70ca a1be 974c 8a3e
00000120: 452e 52bc 3367 87be a23c bdbe 8330 353e
00000130: df36 54be 846c 1ebe 6d77 5e3f 43cf 07be
00000140: c6a2 83be c100 953e 296a 513d 393e 00bf
00000150: c86d 28be 312e 8fbd 6b05 b0be b79c c43d
00000160: 56f2 f73d c48e bc3d 80d3 13be 63c5 ffbd
00000170: 3d5e adbe ec1a 9f3e 363d a1be 2721 d0be
00000180: 5d38 d6be 5f22 7dbe 4e2e 41bf 49ad 86bd
00000190: 4224 cd3d 2a29 6f3e 64ec 563f 0727 61be
000001a0: 66a0 32bd e9b1 4fbd 75e7 25be d902 e53e
000001b0: 40b2 79be 3037 bb3d b082 21bf 945a 77bd
000001c0: db95 cdbc 56d6 19bf 159f de3d 371e 82bd
000001d0: 2e53 81be a60f 283f 6f88 a93d 9c2f 40be
000001e0: 4dbb 6b3c b3e8 f3bd 215c 923e 668e 073e
000001f0: 2ade 32be 15f1 61bc 70fe bebe b6cc c83e
00000200: 8cc5 07bf 0a3b 333d 0a1b 1d3d 2f50 08bf
00000210: 4428 43bc b3eb 1fbe 3a86 8f3e 2949 023d
00000220: 6fe4 0f3d c9b2 893e 1871 d83e 4a70 ae3c
00000230: f56d 5e3e ff99 eb3d 4237 87be e5ab 8ebe
00000240: 5bb0 c03e 7528 debe 72c5 943e d5b0 403d
00000250: 482b 58bf b8d7 9fbe be4b 64bd 51ad e53e
00000260: 05aa b6be 282d cabd 870f adbe 5d94 02be
00000270: cd89 d6be 87fe 2fbd 2f89 03bf 9326 e6be
00000280: 4dbf 41be d0a4 febe 2e89 88be fb95 5b3c
00000290: 2cb5 e0bc b59c 42be 15be 25bd 20b8 773e
000002a0: 5eb9 a1bc ddd7 353e a5fb c43e 5bb8 15be
000002b0: 197b 473e c818 2e3c 401c 7f3e 8681 ad3d
000002c0: c1be 19be 7c56 fa3d fcfc cfbe 7b5b f73d
000002d0: 121f bfbd cfe1 40be 22a5 bf3c c602 4fbe
000002e0: a640 fe3d aff5 4c3e 2b89 83bc 1dbb 16be
000002f0: 7a9e 0d3f 5fb5 1f3e c18c 5f3e 8f7d 263f
00000300: ebd9 8fbe 0fff db3e 84be c4be 96c4 153e
00000310: d872 d4be 59fe 3d3e 2053 f83c 20f0 b43d
00000320: 1182 76be 733f 123d 391c d2be 40e2 97be
00000330: 7125 46be a2c3 d33a f164 c93e 4a1e 373e
00000340: c301 303d 4ba8 27be 2018 383f d51d aa3e
00000350: 13b9 253e b458 f03e 5308 023d 8e3b 41be
00000360: 2cc3 24be 431c 65be ed03 35bf 2c53 b3bd
00000370: 9330 eeba 454d e4be 3a35 213c 7e24 25be
00000380: bf86 273c 9d50 913c 7be4 85be 6e0e aebe
00000390: 22ba 16bf f8c2 e4bd 05e3 753e 7de5 babe
000003a0: cc6b 3fbe 6c2b c63e 8a76 253f 3109 9ebe
000003b0: 3627 94be 904b 8b3d e830 00bf 3fd4 143e
000003c0: 2bb7 7fbd 97d0 18be 2150 673e 3881 f9bd
000003d0: 7a32 0dbf 3ec3 1dbe fe55 a2bc fe0e fe3e
000003e0: 4ea2 8bbe 119d 8cbe 174b 983d b154 bebe
000003f0: 699e 31be 28e2 763b 2fe1 babe ec09 84be

oDecoder.oGRU.bias_ih_l0 f4 [96]
0.21598722 0.114422046 0.07065168 0.20835927 0.15764432 0.09886014 0.0788415 -0.034892976
0.3519974 0.53221035 0.041554403 0.23353301 0.20330346 0.0842328 0.11537952 0.10936174
0.1354027 0.17852448 0.18956079 0.39543068 0.3901771 0.18538766 0.37151343 0.17112514
0.09536152 0.27894366 0.23796114 0.07032658 0.26314315 0.30976644 0.35742438 0.23760879
-0.17087866 -0.2420997 0.106847495 -0.73672724 -0.49314848 -0.27169478 -0.47312394 -0.5585889
0.04356744 0.19632219 0.17882952 0.095584296 0.13586298 0.05851278 -0.12174197 -0.2673438
-0.19331405 -0.13914461 -0.32800332 -0.15826972 0.08408676 -0.09557762 -0.26889575 -0.07661949
-0.7292334 -0.60176504 -0.41843146 -0.061974794 0.5276094 -0.02128431 -0.20908624 -0.32127842
0.22747564 -0.21076465 -0.08322321 -0.18434985 -0.034810986 0.01746824 0.3485649 -0.018782401
0.06972609 -0.03586271 0.03598481 0.456859 0.27074286 0.42620233 -0.24285436 -0.15827684
0.3251765 0.009041008 -0.11756325 0.039883986 -0.05074664 -0.03886612 0.2729632 0.11599019
0.0068397564 0.16041875 0.3913717 -0.06885308 -0.037225176 -0.1773452 -0.1982392 -0.17740178
00000000: c12b 5d3e 1b56 ea3d d4b1 903d 225c 553e
00000010: 836d 213e 2f77 ca3d a777 a13d f0eb 0ebd
00000020: 0139 b43e f03e 083f f334 2a3d 4723 6f3e
00000030: c82e 503e 3f82 ac3d 194c ec3d 0cf9 df3d
00000040: 01a7 0a3e 1fcf 363e 391c 423e e475 ca3e
00000050: 4bc5 c73e 43d6 3d3e 0237 be3e 6e3b 2f3e
00000060: e74c c33d b4d1 8e3e 16ac 733e 6207 903d
00000070: b3ba 863e b599 9e3e 5400 b73e b84f 733e
00000080: d1fa 2ebe fce8 77be dcd2 da3d 289a 3cbf
00000090: f57d fcbe 941b 8bbe 4d3d f2be afff 0ebf
000000a0: c673 323d af08 493e 161f 373e b3c1 c33d
000000b0: aa1f 0b3e 19ab 6f3d db53 f9bd 49e1 88be
000000c0: 1ef4 45be ed7b 0ebe 0df0 a7be 7511 22be
000000d0: ae35 ac3d 33be c3bd b4ac 89be aeea 9cbd
000000e0: 0aaf 3abf 460d 1abf a63c d6be 48d9 7dbd
000000f0: 6911 073f 6f5c aebc b41a 56be 9b7e a4be
00000100: 60ef 683e b0d2 57be ee70 aabd 35c6 3cbe
00000110: f795 0ebd 8e19 8f3c 1977 b23e 8ddd 99bc
00000120: 8dcc 8e3d c7e4 12bd cf64 133d 6ce9 e93e
00000130: cf9e 8a3e 3137 da3e d0ae 78be 5313 22be
00000140: 897d a63e bc20 143c 00c5 f0bd 645d 233d
00000150: b5db 4fbd 1532 1fbd d5c1 8b3e 448c ed3d
00000160: 0920 e03b d044 243e df61 c83e d802 8dbd
00000170: 6d79 18bd fb99 35be 38ff 4abe d0a8 35be

oDecoder.oGRU.bias_hh_l0 f4 [96]
0.2772892 0.3690845 0.12332421 0.24521822 0.36035186 -0.07465324 0.16479103 -0.005283564
0.4549662 0.49228173 -0.07635665 0.51695424 0.26040414 0.3343252 0.053406447 0.28095827
-0.072474375 0.0062393267 0.30825147 0.21921283 0.1596591 0.2668014 0.13359088 0.39185968
0.30580142 0.3651978 0.3386273 0.14634939 0.05331987 0.18731941 0.33096507 0.27372095
-0.013141195 0.048259683 -0.08401728 -0.53831273 -0.6030261 -0.3095181 -0.19659828 -0.6820317
0.089605734 -0.02056213 0.40177375 0.26778692 0.22959763 -0.1493673 0.043414634 -0.18007973
-0.102185965 -0.343953 -0.23307131 -0.19263598 0.19543353 0.045120034 -0.55887586 -0.26381025
-0.5851568 -0.60504484 -0.18901101 -0.16729726 0.38838783 -0.18459433 -0.34056407 -0.39055523
0.16541508 -0.29241148 -0.22829604 -0.5992985 0.5461982 -0.33986667 0.2993987 -0.11632351
-0.45356452 -0.1390151 0.37823966 0.59822166 0.5104292 0.383533 -0.14904967 -0.21264985
0.23132966 -0.0904591 -0.14667031 -0.259422 0.08347656 -0.3853207 0.27066535 0.45970452
0.1914049 0.6738712 0.16469605 -0.23621903 0.14460868 -0.18607385 0.090166144 -0.2587401
00000000: daf8 8d3e a5f8 bc3e 6791 fc3d 7c1a 7b3e
00000010: 0a80 b83e cce3 98bd fbbe 283e bf21 adbb
00000020: 54f1 e83e 5a0c fc3e e060 9cbd 1d57 043f
00000030: b153 853e ac2c ab3e b8c0 5a3d c3d9 8f3e
00000040: 726d 94bd 4473 cc3b 23d3 9d3e 5479 603e
00000050: ad7d 233e 319a 883e 0ccc 083e d5a1 c83e
00000060: 0192 9c3e 35fb ba3e 8f60 ad3e 9ddc 153e
00000070: f065 5a3d a9d0 3f3e 4174 a93e 2725 8c3e
00000080: 2b4e 57bc f2ab 453d 4011 acbd ddce 09bf
00000090: eb5f 1abf 2879 9ebe 0f51 49be a199 2ebf
000000a0: 3683 b73d e971 a8bc 4ab5 cd3e 5e1b 893e
000000b0: a41b 6b3e bef3 18be 8bd3 313d d266 38be
000000c0: e046 d1bd 9c1a b0be 3faa 6ebe 5e42 45be
000000d0: ba1f 483e c9cf 383d 7d12 0fbf 2312 87be
000000e0: d6cc 15bf 38e4 1abf 1a8c 41be f94f 2bbe
000000f0: c5da c63e 4c06 3dbe 6a5e aebe dbf6 c7be
00000100: 9262 293e f5b6 95be 70c6 69be a06b 19bf
00000110: a5d3 0b3f 0103 aebe c94a 993e 053b eebd
00000120: 9c39 e8be f959 0ebe a1a8 c13e 0e25 193f
00000130: 7dab 023f 705e c43e 7aa0 18be e2c0 59be
00000140: afe1 6c3e 9f42 b9bd be30 16be f6d2 84be
00000150: c2f5 aa3d c148 c5be a694 8a3e 645e eb3e
00000160: a5ff 433e d382 2c3f 15a6 283e 67e3 71be
00000170: 4c14 143e 258a 3ebe 07a9 b83d 9579 84be

oDecoder.oLinear.weight f4 [55, 32]
0.972846 1.5542785 0.59521544 1.234338 -0.5984729 0.53344464 -1.4721756 -0.23384845
1.3586252 1.0639297 1.4028373 -1.5415233 -1.88995 -1.8869148 2.1126444 0.41585428
-0.9551459 -0.2644955 0.603661 0.7370393 1.0122234 -0.87199646 -0.7824809 -1.5805565
0.29297176 0.2676653 -2.0468917 0.004154705 -0.83371085 1.1493322 -0.1086297 0.2570448
0.41567937 -0.5472102 -0.66492164 -0.20501228 0.35305682 -0.4968473 -0.865171 0.36870396
-0.58931416 -0.7047265 0.36320803 -0.040157672 0.33047917 0.29207417 0.14661707 -0.07101411
0.4045251 0.16218476 -0.28197786 -0.40240017 0.62869173 -0.5827383 0.11219306 0.31110755
-0.579061 0.44639662 0.66614044 -0.162693 -0.067045905 -0.511488 1.093526 0.16045599
1.0081298 1.5745851 0.6084346 1.2233887 -0.63883686 0.44784498 -1.3963612 -0.22696398
1.3441104 1.1544076 1.389077 -1.5444247 -1.8540682 -1.8817345 2.1414068 0.46744406
-0.9811886 -0.19133717 0.48126706 0.65840536 1.0213513 -0.8980323 -0.7029683 -1.6380717
0.16403922 0.31324723 -1.9128109 0.028451046 -0.8002613 1.1626959 -0.14402503 0.3021657
-0.35118204 0.24691634 0.18847774 0.51069325 -0.4319976 0.3473502 -0.08686755 0.46517467
-0.1680454 0.35546 -0.06855087 -0.24023347 -0.09954592 -0.32416537 -0.047607437 0.013742372
-0.08911546 0.3730715 0.4755678 0.5837315 -0.19962877 -0.050352264 -0.6500591 -0.5541433
-0.4512639 -0.5668402 0.14251038 0.33519623 -0.47772312 -0.051758483 -0.078493856 -0.017800212
-0.39925984 0.12095465 0.38473383 0.33126155 -0.57786894 0.3013228 -0.053568207 0.39720458
-0.05435181 0.5055342 0.013556538 -0.01217088 -0.21148334 -0.5853411 -0.26448974 0.018415438
0.012217696 0.3620969 0.5936214 0.30755007 0.23063138 -0.07706086 -0.6677289 -0.36097768
-0.2807273 -0.5782051 0.15432514 0.40712523 -0.010951622 -0.14372478 0.1188112 0.42465353
-0.40552464 -0.4137834 0.35746858 0.26250523 -0.587786 0.21788917 -0.08974221 0.39704788
0.50355077 0.44355083 -0.13583992 -0.047009952 -0.7837181 -0.20187934 0.05361291 -0.053545173
-0.25404337 0.4408679 0.55838585 0.4810608 0.18730366 -0.15827863 -0.7264473 -0.14814311
-0.5350507 -0.45469886 0.07878869 0.028407963 0.1442898 0.1643923 0.12621117 0.021642758
-0.26867446 0.18133582 0.2717769 0.23688471 -0.5028727 0.332567 -0.2764 0.277666
0.383607 0.39736825 0.045841746 0.04490659 -0.45623523 -0.36899614 -0.030223778 -0.10039662
-0.108112566 0.27440313 0.52866274 0.46828052 -0.10696508 -0.056746703 -0.71794575 -0.414847
-0.3562046 -0.5255159 0.15105058 0.22698155 0.22401346 -0.09143588 -0.062177293 0.08527986
-0.25129732 0.11016131 -0.0457883 0.473812 -0.49894914 0.2775761 -0.3379373 0.2548128
0.3373473 0.07992394 0.07438789 -0.2104973 -0.4126331 -0.64343536 -0.16818962 0.2635923
0.24660683 0.34904435 0.5621591 0.53248215 0.07165442 0.013203728 -0.48404118 -0.37223232
-0.45325404 -0.48468855 -0.27327022 0.354583 -0.37970534 0.11531036 -0.27240616 0.09954435
00000000: 6f0c 793f 99f2 c63f 0a60 183f cafe 9d3f
00000010: 8535 19bf d48f 083f 4070 bcbf f875 6fbe
00000020: 6ee7 ad3f d92e 883f 2c90 b33f a350 c5bf
00000030: e2e9 f1bf 6d86 f1bf 9135 0740 daea d43e
00000040: 7184 74bf f46b 87be 8789 1a3f 9cae 3c3f
00000050: 8990 813f 293b 5fbf ab50 48bf ad4f cabf
00000060: 6500 963e 6d0b 893e 4600 03c0 3124 883b
00000070: 136e 55bf 511d 933f 4079 debd 609b 833e
00000080: edd3 d43e f815 0cbf 4e38 2abf bdee 51be
00000090: ddc3 b43e c562 febe d97b 5dbf c4c6 bc3e
000000a0: 4bdd 16bf f568 34bf 67f6 b93e 5f7c 24bd
000000b0: 9134 a93e bf8a 953e c922 163e d96f 91bd
000000c0: ea1d cf3e c313 263e 675f 90be 6507 cebe
000000d0: f1f1 203f 562e 15bf 7ac5 e53d 7d49 9f3e
000000e0: 573d 14bf 198e e43e 2e88 2a3f fe98 26be
000000f0: 5d4f 89bd e1f0 02bf a9f8 8b3f 934e 243e
00000100: 660a 813f 018c c93f 5fc2 1b3f 0098 9c3f
00000110: d08a 23bf f04b e53e f7bb b2bf 3f69 68be
00000120: cf0b ac3f a1c3 933f 46cd b13f b5af c5bf
00000130: 1b52 edbf addc f0bf cf0c 0940 d454 ef3e
00000140: 2d2f 7bbf e4ed 43be a368 f63e 418d 283f
00000150: a4bb 823f 72e5 65bf bbf5 33bf 55ac d1bf
00000160: e6f9 273e f161 a03e fdd6 f4bf 2b12 e93c
00000170: eddd 4cbf 38d3 943f 4c7b 13be 76b5 9a3e
00000180: 22ce b3be a3d7 7c3e 4f00 413e cbbc 023f
00000190: ca2e ddbe e3d7 b13e 9de7 b1bd 602b ee3e
000001a0: 1814 2cbe dafe b53e 6664 8cbd c3ff 75be
000001b0: bbde cbbd 01f9 a5be 0400 43bd b027 613c
000001c0: 2b82 b6bd 3a03 bf3e 9f7d f33e 6d6f 153f
000001d0: 7c6b 4cbe 2d3e 4ebd 466a 26bf 56dc 0dbf
000001e0: 100c e7be 701c 11bf 3eee 113e d79e ab3e
000001f0: 2098 f4be b400 54bd 63c1 a0bd c0d1 91bc
00000200: c96b ccbe 12b7 f73d d5fb c43e 1d9b a93e
00000210: 38ef 13bf fb46 9a3e 566a 5bbd 665e cb3e
00000220: 01a0 5ebd b06a 013f 3e1c 5e3c 5f68 47bc
00000230: 178f 58be ead8 15bf 336b 87be f9db 963c
00000240: bb2c 483c c464 b93e 92f7 173f 3477 9d3e
00000250: a22a 6c3e 16d2 9dbd 48f0 2abf 11d2 b8be
00000260: 7dbb 8fbe 4005 14bf 6907 1e3e b872 d03e
00000270: 6f6e 33bc 972c 13be 4953 f33d 306c d93e
00000280: eda0 cfbe 6bdb d3be 1f06 b73e 1667 863e
00000290: 2579 16bf 571e 5f3e c4ca b7bd dc49 cb3e
000002a0: b4e8 003f 1819 e33e 9f19 0bbe 828d 40bd
000002b0: c0a1 48bf 75b9 4ebe 3699 5b3d 2f52 5bbd
000002c0: f911 82be 70b9 e13e 60f2 0e3f 9a4d f63e
000002d0: 88cc 3f3e cb13 22be 73f8 39bf d4b2 17be
000002e0: 15f9 08bf 4ace e8be f75b a13d d1b7 e83c
000002f0: b5c0 133e 7556 283e 803d 013e 274c b13c
00000300: b38f 89be 19b0 393e 5826 8b3e e891 723e
00000310: 44bc 00bf 3946 aa3e 4d84 8dbe 3d2a 8e3e
00000320: 2368 c43e da73 cb3e 8ec4 3b3d f9ef 373d
00000330: aa97 e9be 10ed bcbe db97 f7bc be9c cdbd
00000340: 1f6a ddbd 917e 8c3e 7156 073f 77c2 ef3e
00000350: 8210 dbbd 3b6f 68bd 4bcb 37bf d366 d4be
00000360: 7360 b6be 3688 06bf 01ad 1a3e da6d 683e
00000370: c963 653e bc42 bbbd 9ead 7ebd 35a7 ae3d
00000380: 0baa 80be 419c e13d 838c 3bbd 7d97 f23e
00000390: 4376 ffbe 741e 8e3e 1e06 adbe d376 823e
000003a0: c9b8 ac3e 2aaf a33d ae58 983d 9b8c 57be
000003b0: a544 d3be 2eb8 24bf e639 2cbe 92f5 863e
000003c0: 8086 7c3e f1b5 b23e a9e9 0f3f c050 083f
000003d0: 8dbf 923d 7354 583c 3fd4 f7be 3c95 bebe
000003e0: ea10 e8be 1929 f8be 13ea 8bbe e78b b53e
000003f0: bd68 c2be d727 ec3d d278 8bbe e8dd cb3d

oDecoder.oLinear.bias f4 [55]
-2.5523412 0.04775246 -2.6491532 -0.2200674 -0.28364727 -0.22372255 -0.27481484 -0.3247344
-0.22113438 -0.21005648 -0.28769225 -0.31233302 -0.2465457 -0.22388417 -0.16670096 0.09451905
-0.07349751 0.040670104 -0.08134591 -0.2418459 -0.08521696 -0.056793544 -0.16858068 -0.35157198
-0.3862661 -0.12876077 -0.4723578 -0.24870834 -0.3765518 0.008459397 -0.052233163 0.100490816
-0.21828689 0.08194382 -0.111258425 -0.035992272 -0.018566221 0.3471266 -0.17941017 0.29322287
0.08006907 -0.09178527 0.019913236 0.35354272 -0.41319197 -0.44065887 -0.025524966 0.33257663
-0.0055996976 0.16858208 0.14150225 -0.27035826 -0.5192978 0.22271456 0.059737496
00000000: 8f59 23c0 1598 433d ba8b 29c0 5959 61be
00000010: 373a 91be 8617 65be 88b4 8cbe 9643 a6be
00000020: 0d71 62be 0c19 57be 664c 93be 1dea 9fbe
00000030: 7a76 7cbe e441 65be a8b3 2abe 3493 c13d
00000040: dd85 96bd b295 263d af98 a6bd 74a6 77be
00000050: 3b86 aebd 59a0 68bd 6aa0 2cbe 3e01 b4be
00000060: acc4 c5be ddd9 03be e2d8 f1be 66ad 7ebe
00000070: 66cb c0be 4899 0a3c 71f2 55bd 21ce cd3d
00000080: 9986 5fbe 29d2 a73d 75db e3bd a26c 13bd
00000090: 3018 98bc 94ba b13e 4db7 37be 4f21 963e
000000a0: 41fb a33d eaf9 bbbd 1521 a33c 8d03 b53e
000000b0: e68d d3be 0a9e e1be bc19 d1bc 7c47 aa3e
000000c0: ab7d b7bb c8a0 2c3e f7e5 103e 666c 8abe
000000d0: b3f0 04bf 490f 643e 4eaf 743d
