Deep_11_13/Ex6/OneToMany.pt (torch, 39439 bytes, 8 tensors)

oEmbedding.weight f4 [55, 32]
0	0x3e53a0db	0.2066683
1	0x3f94aca5	1.1615187
2	0xbfb955e1	-1.4479333
3	0xc024f7f5	-2.577634
4	0x3fc1dd44	1.514565
5	0x3f394165	0.7236541
6	0xbf5bed01	-0.85908514
7	0xbf8047f0	-1.0021954
8	0xbe85eaf3	-0.26155815
9	0xbfc3923e	-1.5279005
10	0x3e55dc56	0.20884833
11	0xbfb47818	-1.409915
12	0xbbb9d5ed	-0.005671254
13	0x3fbc7124	1.4722028
14	0x3f19e8be	0.6012076
15	0x3efb09a8	0.49030805
16	0x3f96f778	1.1794271
17	0x3f74d07e	0.95630634
18	0xbe20d0b5	-0.15704615
19	0xbe25c5a0	-0.16188669
20	0x3fac12a2	1.3443186
21	0xbf8ebfca	-1.1152279
22	0x3f78fa78	0.97257185
23	0xbf9d5de2	-1.2294276
24	0x3f4c92a5	0.7991126
25	0xbe73f7a9	-0.23824944
26	0x3f2ebd20	0.6825733
27	0x3c2c2e93	0.010509151
28	0x3ed85406	0.42251605
29	0x3e7b6aed	0.24552508
30	0xbdebe863	-0.115189336
31	0x3f7c8e35	0.9865449
32	0x3fb0a433	1.380011
33	0xbfbf277f	-1.4933928
34	0x3e949dcb	0.29026636
35	0xbeb4d0fe	-0.35315698
36	0x3e17c3ba	0.14820758
37	0xbd0b312a	-0.033982433
38	0x3f9906be	1.1955183
39	0x3ed7384e	0.42035145
40	0xbf66319f	-0.89919466
41	0x3d8dd5b5	0.06925527
42	0xbf92c1c3	-1.1465381
43	0xbe48f6df	-0.19625424
44	0xbf0f5054	-0.55981946
45	0x3f8d3449	1.1031581
46	0xbeefe5a4	-0.4685489
47	0x3f8d4575	1.1036822
48	0x3fe319eb	1.7742285
49	0xbf6706ec	-0.90244937
50	0xbfbbc918	-1.4670744
51	0x3efd7268	0.49501348
52	0xbf84a509	-1.0362865
53	0xbfd5e880	-1.6711578
54	0x3fb27b85	1.3943945
55	0x3e41e4d2	0.18934944
56	0x3f0715ac	0.52767444
57	0x3f8642a9	1.0489093
58	0x3e9042aa	0.2817586
59	0xbe90e190	-0.2829709
60	0x3fdebad0	1.7400761
61	0xbd20aa80	-0.0392251
62	0x3ebafd84	0.36521542
63	0x3e923709	0.28557613
64	0x3f29b8ee	0.66297805
65	0x3fbdec2f	1.4837703
66	0x3f08fe5a	0.5351311
67	0x3edeb7bd	0.43499556
68	0xbf71fdac	-0.945277
69	0x3e2a981e	0.1665959
70	0xbf965b96	-1.17467
71	0x3f036736	0.5132936
72	0xbf30d75f	-0.6907863
73	0x3eb8824d	0.36036912
74	0xbe8346a0	-0.2563982
75	0xbf990f7a	-1.1957848
76	0x3fb538a9	1.4157916
77	0xbf7e4fdb	-0.993406
78	0xbf1b70af	-0.60718817
79	0xbed605b7	-0.41801235
80	0x3fac8794	1.3478875
81	0x3f7b9eaa	0.9828898
82	0xbf8bdbe4	-1.092648
83	0x3f92bd6d	1.1464058
84	0xbfc2b468	-1.5211306
85	0xbfcfed3d	-1.6244274
86	0xbf3de74e	-0.7418107
87	0x3f159357	0.5842795
88	0xbf4eead8	-0.80827093
89	0xbef33c67	-0.4750702
90	0x3ea0fa67	0.31441042
91	0x3e1199ff	0.14218901
92	0x3f6ccc9a	0.924997
93	0xbedb9d48	-0.42893434
94	0xbf9e0cc8	-1.234765
95	0x4019ed59	2.4051116
96	0xbe15fdcf	-0.14647602
97	0x3f3bca64	0.733557
98	0xbe865b79	-0.26241663
99	0xbf896fd9	-1.0737258
100	0xbfb50ebd	-1.4145123
101	0xbf9b5f68	-1.2138491
102	0x40000937	2.0005624
103	0xbef166f0	-0.47148848
104	0xbc131ccf	-0.0089790365
105	0xbfacc057	-1.3496197
106	0xbf024831	-0.50891405
107	0x3f3f529c	0.74735427
108	0xbf9216dc	-1.1413226
109	0xbdc7d903	-0.097581886
110	0xbec0b4e4	-0.3763801
111	0xbe69b035	-0.22821124
112	0xbdfa53f3	-0.12223043
113	0xbccfd48f	-0.02536991
114	0x3f3f5ebe	0.7475394
115	0x3fa6f8ce	1.3044679
116	0xbdf3cca6	-0.11904268
117	0x3fe17dfd	1.7616574
118	0xbf464f24	-0.7746451
119	0x3f29c7d4	0.6632054
120	0xbfa3e1d9	-1.2803298
121	0xc0032727	-2.0492647
122	0xbf155f1c	-0.5834825
123	0x3e2f210b	0.17102449
124	0x3fcb65a1	1.589039
125	0xbed3929c	-0.41322792
126	0xbf619f6a	-0.8813387
127	0x3e94f3c1	0.2909222
128	0xbf076595	-0.52889377
129	0x3edb2753	0.4280344
130	0xbf2e15bd	-0.6800192
131	0x3eb39210	0.35072374
132	0x3f5928c3	0.8482782
133	0x3ff13a34	1.8845887
134	0xbe9ecfcc	-0.3101791
135	0xbf1a15a4	-0.6018927
136	0xbfa2a0a1	-1.270527
137	0xbf46f467	-0.7771668
138	0xc00e6518	-2.2249203
139	0x3f6f0f28	0.933825
140	0xbee31b20	-0.44356632
141	0xc009ba0a	-2.15198
142	0x3df408ae	0.11915718
143	0xbe7c5371	-0.24641205
144	0xbfe3b664	-1.7790036
145	0xbfbac88a	-1.459245
146	0xc0105500	-2.255188
147	0xbf8184d2	-1.0118659
148	0x3ea7e8bf	0.3279476
149	0xbfa07f53	-1.2538856
150	0xbf6feb29	-0.937182
151	0x3f651d47	0.894978
152	0x3fe19fbb	1.7626871
153	0x3f11009c	0.56641555
154	0xc006984e	-2.103046
155	0xbdeeba38	-0.11656612
156	0xbf5dee77	-0.86691993
157	0xc0275b0e	-2.6149325
158	0xc008135d	-2.1261818
159	0xbeecb710	-0.46233416
160	0x3fb7c4ab	1.4356893
161	0x3e864332	0.2622314
162	0x3ee692ce	0.45033878
163	0x3d7b72fc	0.061388955
164	0xbf2c7f00	-0.67381287
165	0xbcad395e	-0.021145519
166	0xbf2a3b7e	-0.6649703
167	0x3f192bca	0.5983244
168	0xbf8866ef	-1.0656413
169	0xbe8bdc79	-0.27316645
170	0xbf0a339e	-0.5398501
171	0xbe968af6	-0.29402894
172	0x400ac35d	2.168174
173	0xbef6e329	-0.48220184
174	0xbf1b4fb1	-0.60668474
175	0xbfa51608	-1.2897348
176	0x3f557841	0.8338662
177	0x3e652a86	0.22379503
178	0xbf570944	-0.83998513
179	0x3e8ed896	0.27899617
180	0xbf0602ee	-0.5234822
181	0xbed34c97	-0.4126937
182	0xbdbed308	-0.09317595
183	0xbea99f89	-0.33129528
184	0xbf0ff81f	-0.5623798
185	0x3ebb35a4	0.36564362
186	0x3f5f0f75	0.8713296
187	0xbf878e37	-1.0590276
188	0x3f1e83cc	0.61919856
189	0x3cd6eee2	0.026236955
190	0xbd9ae878	-0.07563871
191	0x3d0d6ca5	0.03452744
192	0xbf5b2007	-0.85595745
193	0x3e58b9e5	0.21164663
194	0x3ebc6e91	0.36803105
195	0xbf7c15f1	-0.9847098
196	0xbea7c515	-0.3276755
197	0x3f5eacd3	0.8698246
198	0x3f95c05d	1.169933
199	0xbf88d28f	-1.0689257
200	0xbda2fee4	-0.07958773
201	0x3f0ae565	0.5425628
202	0xbfadca33	-1.3577331
203	0x3fa20781	1.265854
204	0xbe9369ba	-0.287916
205	0x3e35beaf	0.17748521
206	0xbe9645ee	-0.29350227
207	0x4005ef64	2.0927362
208	0xbfb34797	-1.4006222
209	0xbf896e42	-1.0736773
210	0xbf238f9f	-0.63891023
211	0xbf8f1c17	-1.1180447
212	0x3fc59766	1.5436828
213	0x3e3c05e4	0.18361622
214	0x3f14d9f9	0.581451
215	0x3fa95e87	1.3231972
216	0x3fef699b	1.8704103
217	0x3eba9b7c	0.3644675
218	0x3f7aa123	0.97902125
219	0xbe82b5ba	-0.2552927
220	0xbf4b6c8d	-0.7946251
221	0xbe83dbb8	-0.2575357
222	0xbfdbf48e	-1.7184007
223	0xbeaf9aa3	-0.34297666
224	0x3fbfca04	1.4983525
225	0x3fd85a98	1.6902647
226	0xbefae51a	-0.49002916
227	0xbfa1fb3e	-1.2654798
228	0xbf059661	-0.52182585
229	0x3fbf3bca	1.4940121
230	0xbf5e3fea	-0.86816275
231	0x3f08b2b1	0.5339766
232	0x3e8ef19a	0.27918702
233	0x3f068f6d	0.525626
234	0xbda2c5b2	-0.07947864
235	0x3f316537	0.69295067
236	0x3fa02694	1.2511773
237	0x3e26c55c	0.16286224
238	0x3e8fd982	0.28095633
239	0x3f01891a	0.50599825
240	0xbf2cf6a2	-0.6756383
241	0xbfb1c843	-1.388924
242	0xbebec686	-0.37260836
243	0x3fd09901	1.6296693
244	0x3ffa6479	1.9561912
245	0xbf99dd7f	-1.202072
246	0x3f6ac757	0.9171042
247	0x3f9a9ac4	1.2078481
248	0x3ec01f60	0.37523937
249	0x3f4c8067	0.79883426
250	0x3f5b3c26	0.85638654
251	0x3dabe623	0.083935045
252	0xbf886ab0	-1.0657558
253	0xbd1c42e4	-0.03814973
254	0xbf76ad57	-0.96358246
255	0x3efd2875	0.4944493

oDecoder.oEmbedding.weight f4 [55, 16]
0	0xbf1ae47f	-0.6050491
1	0x3f326cb8	0.6969714
2	0xc00f9c2d	-2.2439072
3	0xbe50620d	-0.20349903
4	0xbf3ff136	-0.74977434
5	0xbeb3c774	-0.35113108
6	0xbeaacce7	-0.33359453
7	0xbee91bf5	-0.45529142
8	0x3f69aaf3	0.9127647
9	0xbf3c9abf	-0.73673624
10	0x3f547850	0.8299608
11	0x3edfca70	0.43709135
12	0xbeeed9f0	-0.46650648
13	0x3e8e6086	0.27808017
14	0x3e8ac5ef	0.27104136
15	0x3f206292	0.62650406
16	0x3f309ada	0.68986285
17	0x3fcb74ba	1.5894997
18	0x3f07e3e7	0.53082126
19	0xbf8da81d	-1.1066929
20	0x3f094166	0.53615415
21	0xc01887d2	-2.3832898
22	0x3fc52c19	1.5404083
23	0x3f7abdde	0.97945964
24	0x3fb9d616	1.4518459
25	0xbfa18d30	-1.2621212
26	0xbe8741d4	-0.2641741
27	0xbf9b4ace	-1.2132204
28	0x3f5ee365	0.87065727
29	0xbe9dcf41	-0.30822185
30	0xbf692e5f	-0.9108638
31	0xbfd093a7	-1.629506
32	0xbfad3330	-1.3531246
33	0xbe5629ec	-0.2091443
34	0xbd261310	-0.040545523
35	0x3f9cf9f0	1.2263775
36	0x3cd51f91	0.026016029
37	0x400257b0	2.036602
38	0xbc0c3975	-0.008558621
39	0xbece46f0	-0.40288496
40	0x3fbed6e5	1.4909331
41	0x3fd315fd	1.6491085
42	0x3f59e3da	0.851133
43	0x3e9e3d3f	0.30906102
44	0xbff4888f	-1.9104174
45	0x3f0a4045	0.5400432
46	0xbf891b65	-1.0711485
47	0x3e62a46f	0.22133039
48	0x3eca2c5c	0.3948697
49	0xbefdb2c4	-0.4955045
50	0xbe817972	-0.25287968
51	0xbeb17f8b	-0.3466762
52	0x3fd4295d	1.6575123
53	0x3f35b96f	0.70986074
54	0xbebf2c76	-0.37338609
55	0x3e216004	0.15759283
56	0xbf2ad13a	-0.66725504
57	0xbf61eec9	-0.8825498
58	0xbf1e5c4a	-0.6185957
59	0xbe6840af	-0.22680925
60	0xbf2ee975	-0.6832498
61	0xbebac396	-0.36477345
62	0x3ec4d714	0.38445342
63	0xbd7ae2e1	-0.061251525
64	0xbf2a7682	-0.6658708
65	0x3ebfe5c6	0.3747999
66	0xbfdb321b	-1.7124666
67	0xbebfe461	-0.37478927
68	0x3f959820	1.168705
69	0xbf0e225e	-0.5552119
70	0x3f0dca37	0.5538668
71	0x3fb820d6	1.4385021
72	0x3fb80944	1.4377828
73	0xbf1fcbac	-0.62420154
74	0xbf4243a6	-0.75884473
75	0xbf31c77e	-0.69445026
76	0x3e3d3329	0.18476547
77	0x3dc695bd	0.09696529
78	0x3d03470d	0.03205018
79	0xbf8902b6	-1.0703952
80	0xbf533a8c	-0.8251121
81	0x3fb02c01	1.3763429
82	0x3fba3491	1.4547292
83	0x3e753cc6	0.23948964
84	0x3f269695	0.6507352
85	0xbeb6bec5	-0.3569242
86	0x3ef41143	0.4766942
87	0xbf5ce0b7	-0.8628039
88	0x3f943553	1.1578773
89	0x3e11fb3b	0.14255993
90	0xbea268a3	-0.31720456
91	0xbddecb86	-0.10878663
92	0xbf011316	-0.5041975
93	0x3f10ee9b	0.56614083
94	0x3fc845d3	1.5646309
95	0x3cab3edf	0.020904003
96	0xbe5e54df	-0.21712063
97	0xbed990d7	-0.42493317
98	0x3eae2bb1	0.3401771
99	0xbf0228a8	-0.50843287
100	0xbf86521d	-1.0493809
101	0xbf263d7e	-0.6493758
102	0x3f636eeb	0.8884112
103	0xbeea4506	-0.45755786
104	0xbf15af56	-0.58470666
105	0xbf4d2b45	-0.8014415
106	0x3f033b02	0.51261914
107	0xbf4f6a10	-0.81021214
108	0x3f61895b	0.8810021
109	0x3c05a765	0.008157586
110	0x3fe8c5fe	1.8185422
111	0x3ee2ae4c	0.44273603
112	0x3f11d5ba	0.56966746
113	0x3ff7e94b	1.936807
114	0x3fda6067	1.706067
115	0xbec3d7b3	-0.38250503
116	0x3d1528da	0.036415912
117	0xbf91a66d	-1.1378914
118	0x3f0a3a89	0.5399557
119	0xbf0254a5	-0.5091041
120	0x3f31ef3f	0.69505686
121	0xbe182208	-0.14856732
122	0xbee9acec	-0.4563974
123	0x3df2add3	0.118495606
124	0xbf17da58	-0.5931754
125	0x3fab1442	1.3365557
126	0x3f24eaaf	0.644206
127	0x3f322bf4	0.6959832
128	0xbe7fd48a	-0.24983421
129	0xbf47dff7	-0.7807612
130	0xbefae159	-0.49000052
131	0xbe981250	-0.2970147
132	0xbf99f964	-1.2029233
133	0x3fdde3ec	1.7335181
134	0xbfe23030	-1.7670956
135	0x3f65a0f8	0.89698744
136	0x3fb50c66	1.4144409
137	0x3dfd78aa	0.123765305
138	0x3e94fa20	0.2909708
139	0xbebae903	-0.365059
140	0xbf45b9bf	-0.7723655
141	0xbf3fd02f	-0.7492704
142	0xbf61fa3b	-0.88272446
143	0xbf75a536	-0.95955217
144	0x3fb5fe98	1.4218321
145	0xbd95f58f	-0.07322227
146	0xbf81cff5	-1.0141588
147	0xbf7d5bba	-0.9896809
148	0x3f23fc1a	0.6405655
149	0x3d0e7ca8	0.03478685
150	0xbe9aafea	-0.30212337
151	0xbfc98bd0	-1.5745792
152	0x3eaa8d6f	0.3331103
153	0xbd404c47	-0.046947744
154	0x3e61d081	0.22052194
155	0x3ed69f14	0.41918242
156	0x3ebe7fa5	0.3720676
157	0x3ddcf49a	0.107888415
158	0xbead8f92	-0.33898598
159	0x3e1ef420	0.15522814
160	0xbf48dfff	-0.7846679
161	0xc02084d9	-2.5081084
162	0x3eda9387	0.4269068
163	0xbfa462c9	-1.2842647
164	0x4030d792	2.7631574
165	0xbd210308	-0.03930953
166	0x3e8aacd0	0.2708497
167	0xbf03c6e6	-0.5147537
168	0x3ee793de	0.4523
169	0xbe94058a	-0.28910476
170	0xbf4e6505	-0.80622894
171	0x3f5108f1	0.8165427
172	0x4045d245	3.0909588
173	0x3e738391	0.23780657
174	0x3cca8c1b	0.02472501
175	0xbec60d70	-0.38682127
176	0xbf9ed66b	-1.2409185
177	0xbf738720	-0.9512806
178	0xbd19b114	-0.03752239
179	0x3f6335eb	0.8875415
180	0xbf8eb095	-1.1147639
181	0xbf104790	-0.56359196
182	0xbf5ba7aa	-0.8580271
183	0xbe935450	-0.28775263
184	0x3e87877f	0.26470563
185	0xbfc8559e	-1.5651128
186	0x40260cef	2.5945394
187	0x3ecd856b	0.40140852
188	0xbde562fa	-0.11200519
189	0xbd4c2b7d	-0.04984616
190	0xbf3362f0	-0.7007284
191	0xbf608dfb	-0.87716645
192	0x3fbce880	1.4758453
193	0xbe4f4917	-0.20242725
194	0x3fbcdfe5	1.4755827
195	0xbf6c62e3	-0.9233839
196	0x3fef82bb	1.8711771
197	0xbfb0574a	-1.3776639
198	0x3f434a8c	0.76285625
199	0x3f8eb000	1.1147461
200	0x40359f96	2.8378654
201	0xbfc00a57	-1.5003155
202	0xbfabef4a	-1.34324
203	0x3f8f0190	1.1172352
204	0xbe7a7e2d	-0.24462195
205	0x3e83c87a	0.2573889
206	0x3eaf6773	0.34258613
207	0x3de83020	0.11337304
208	0xbfb8818c	-1.4414535
209	0x3eb4f1f5	0.3534085
210	0xbe3b055c	-0.18263763
211	0xbda75f3a	-0.0817246
212	0x3f7caf9d	0.98705465
213	0x3ee53345	0.44765678
214	0xbfabd43d	-1.3424145
215	0x40345dd1	2.818226
216	0xbe17f4f1	-0.14839531
217	0xbfa19df4	-1.2626328
218	0x3e086045	0.13317974
219	0x3f39ff3a	0.7265507
220	0x3f9aace7	1.2084016
221	0xbfe846ce	-1.8146608
222	0xbef9b9d5	-0.4877459
223	0xbe7085c9	-0.23488535
224	0xbebebc4f	-0.37253043
225	0x3f19e9d1	0.601224
226	0xbfad6289	-1.3545696
227	0x3e67c199	0.22632445
228	0xbe9e721b	-0.3094643
229	0xc004a0fa	-2.0723252
230	0xb99240cf	-0.00027895576
231	0xbe226162	-0.15857461
232	0xbf650ff3	-0.8947746
233	0x3fbc58f7	1.471465
234	0xbf736954	-0.9508259
235	0x3e811f16	0.2521903
236	0xbfc7549b	-1.5572695
237	0xbffba9a1	-1.9661142
238	0xbca9cff5	-0.020729044
239	0xbf5a438d	-0.85259324
240	0xbf1a234e	-0.6021012
241	0x3f4eed37	0.8083071
242	0x3efa2e6f	0.4886355
243	0xbf03f085	-0.5153888
244	0x3e93c0da	0.28858072
245	0xbf87a6be	-1.0597761
246	0x3f093b3e	0.5360602
247	0xbf059bf5	-0.52191097
248	0xbfa2e89f	-1.272724
249	0x3f3d7fe5	0.74023277
250	0xbfa58ba7	-1.2933244
251	0xbef80eb5	-0.4844872
252	0x3ea72495	0.32645097
253	0xbfe6740e	-1.8004167
254	0xbf13103a	-0.57446635
255	0xbe482490	-0.19545197

oDecoder.oGRU.weight_ih_l0 f4 [96, 16]
0	0x3dc38328	0.095465004
1	0x3c88a461	0.016679944
2	0xbc3e46b7	-0.011613539
3	0xbe7757c4	-0.24154574
4	0x3e15720c	0.14594287
5	0xbe1cd6cf	-0.15316318
6	0x3dc5aa42	0.09651615
7	0x3d72fd67	0.059323695
8	0xbd5fc0fe	-0.05462741
9	0xbe2a25b7	-0.1661595
10	0xbe12c2b7	-0.1433209
11	0xbe29a6a4	-0.16567475
12	0xbe3f3a98	-0.18674695
13	0x3ddf5d57	0.10906475
14	0xbd95bef4	-0.07311812
15	0xbebd8534	-0.37015688
16	0x3cbf97ad	0.023387754
17	0xbd95b7ed	-0.07310472
18	0x3ea60eb9	0.32433107
19	0xbd5147cf	-0.051093873
20	0x3e1d46df	0.15359066
21	0x3d4339d7	0.047662582
22	0xbd7dc585	-0.061955947
23	0x3e172ed7	0.14763962
24	0xbd25fff9	-0.040527318
25	0x3dbd02c3	0.092290424
26	0x3b12e52c	0.002241443
27	0xbe6f1c2e	-0.23350593
28	0xbd684122	-0.05670274
29	0xbdfe69ac	-0.12422499
30	0xbddff042	-0.109344974
31	0xbe349d10	-0.1763804
32	0xbdeb087b	-0.11476227
33	0x3e094776	0.13406166
34	0x3c526ad6	0.0128428545
35	0x3d35e74a	0.044410028
36	0x3db6c393	0.089240216
37	0xbdebd84d	-0.115158655
38	0xbb7c424a	-0.003849166
39	0x3df01e07	0.11724477
40	0xbe2a5b93	-0.16636495
41	0xbd8d5ecb	-0.06902846
42	0x3e59ef29	0.21282639
43	0xbe867a46	-0.26265162
44	0xbdffbffd	-0.12487791
45	0xbc6d40ec	-0.014480811
46	0xbe7f3766	-0.24923477
47	0xbcc67200	-0.024224281
48	0x3d5ae4ff	0.053441044
49	0x3e1177cf	0.1420586
50	0xbd95cd44	-0.07314542
51	0x3ddb4699	0.10706825
52	0xbbba3f6a	-0.005683829
53	0x3e0d8cb4	0.13823205
54	0xbda9dcc5	-0.082940616
55	0x3d1af568	0.037831694
56	0x3cf25c28	0.02958496
57	0xbdcda1ed	-0.100406505
58	0x3c14491a	0.009050632
59	0xbe90dfba	-0.2829569
60	0x3c83c9f1	0.016087504
61	0x3d91caae	0.07118736
62	0xbdb5c0ed	-0.08874688
63	0x3c23f056	0.010006031
64	0xbe84e36f	-0.25954768
65	0x3e23fe02	0.16014865
66	0xbe11ad70	-0.14226317
67	0x3e42242b	0.1895911
68	0x3d88e175	0.066836275
69	0x3d0bf8de	0.034172885
70	0x3da2c881	0.07948399
71	0x3eb6f42d	0.35733166
72	0x3c2beebd	0.010493931
73	0xbe2f035d	-0.17091127
74	0xbe386634	-0.18007737
75	0xbea227a8	-0.3167088
76	0xbd0f19a7	-0.034936573
77	0x3e285dcf	0.16442035
78	0x3d485f4c	0.048919007
79	0xbdf74782	-0.12074186
80	0x3dd19d43	0.102350734
81	0x3cac734d	0.021051073
82	0x3d460071	0.048340265
83	0x3db2a19c	0.08722231
84	0x3e2d9995	0.16953118
85	0xbd81a6de	-0.063306555
86	0x3d09d530	0.033650577
87	0xb9cb0f26	-0.00038730464
88	0x3a90691f	0.0011017657
89	0xbdc2bae1	-0.095083006
90	0x3e478ab5	0.19486506
91	0xbe2927c1	-0.16519071
92	0x3e309d89	0.17247595
93	0xbca6a0b0	-0.020340294
94	0xbe487979	-0.19577588
95	0x3e146e46	0.14495191
96	0x3bd090d0	0.0063649192
97	0x3d78adce	0.060712628
98	0x3cdbf5c8	0.026850596
99	0xbc3ab6da	-0.011396134
100	0x3d88758b	0.066630445
101	0xbdfdc24d	-0.123905756
102	0x3e4b65ac	0.19863003
103	0xbc5cda4b	-0.0134797795
104	0x3e466697	0.19375072
105	0x3b28995c	0.0025726175
106	0xbc7fee81	-0.015620829
107	0xbdbe0bb7	-0.09279578
108	0xbd38c4d5	-0.04510959
109	0x3e1d2a47	0.15348159
110	0xbc51286a	-0.012765983
111	0x3e1b0030	0.1513679
112	0x3bfe982e	0.007769606
113	0x3d521a0a	0.051294364
114	0xbda92ee8	-0.082609
115	0xbcc4c167	-0.024018003
116	0x3e44e46c	0.19227761
117	0x3dc68391	0.09693063
118	0x3d10930f	0.035296496
119	0x3e35712f	0.17718957
120	0x3bee98e4	0.0072814096
121	0xbe0c5d5c	-0.13707489
122	0x3e2e5cbd	0.17027564
123	0xbe8d4623	-0.27592573
124	0x3d3a5a3f	0.04549622
125	0x3d83dfbd	0.06439159
126	0xbdae0d20	-0.08498597
127	0xbdeb3b5b	-0.114859305
128	0x3dd6f46d	0.10495839
129	0xbd84302b	-0.064545
130	0x3e261266	0.16217956
131	0xbe521174	-0.2051447
132	0xbd37b920	-0.044854283
133	0xbde63043	-0.11239674
134	0xbda1b481	-0.078957565
135	0x3e6f8fcf	0.23394702
136	0x3c09d2f4	0.008412112
137	0xbca27f9d	-0.019836241
138	0x3d8be0d4	0.06829992
139	0xbde882e9	-0.11353094
140	0xbcca0709	-0.024661558
141	0xbe08576a	-0.13314596
142	0xbd1e6d29	-0.038678322
143	0xbe17899c	-0.14798588
144	0xbe420e83	-0.18950848
145	0x3cf4f031	0.029899688
146	0xbd82a2b5	-0.0637869
147	0xbde7656e	-0.11298643
148	0xbd84c0c5	-0.0648208
149	0x3dc376e3	0.0954416
150	0x3a670743	0.0008813033
151	0x3e2c7f48	0.16845429
152	0x3d88ac3c	0.06673476
153	0xbe2b19d6	-0.16709074
154	0xbde563b7	-0.1120066
155	0xbe3504c3	-0.17677598
156	0x3d3acf3f	0.0456078
157	0xbdc821f8	-0.09772104
158	0xbd69c743	-0.057074796
159	0xbce528f4	-0.02797363
160	0xbd9fcd71	-0.07802857
161	0x3e07dda6	0.13268146
162	0xbdcb605b	-0.09930488
163	0x3dfc8db4	0.12331715
164	0x3e1f8c6e	0.15580913
165	0xbd70b87c	-0.058769688
166	0x3e8bebda	0.27328378
167	0x3e2d210c	0.16907138
168	0x3c08427e	0.008316634
169	0x3ab50c1f	0.0013812816
170	0xbc73a1e2	-0.014870139
171	0xbd627702	-0.055289276
172	0x3d98998e	0.07451163
173	0xbda33e17	-0.07970827
174	0xbd915a8e	-0.0709735
175	0x3e425c48	0.18980515
176	0xbe09f865	-0.13473661
177	0xbcfec680	-0.031100512
178	0xbdff4168	-0.12463647
179	0xbe37a633	-0.17934494
180	0x3df5ef93	0.12008586
181	0x3e0e75f3	0.13912182
182	0xbd7bd8be	-0.061486
183	0x3de29946	0.11064391
184	0x3da74def	0.081691615
185	0xbe055d02	-0.13023761
186	0x3e3684ff	0.17824171
187	0xbd8520a5	-0.06500367
188	0xbaa9c2dc	-0.0012951749
189	0xbe79f88e	-0.24411222
190	0x3dd9a324	0.1062682
191	0x3e47cb71	0.195112
192	0x3e7ac37f	0.24488638
193	0xbc7c6e62	-0.015407177
194	0x3e4dc680	0.20095253
195	0xbce87f6d	-0.028381074
196	0x3ea28e4e	0.31749195
197	0xbdfd5967	-0.12370568
198	0xbd28234e	-0.041049294
199	0xbd166b24	-0.03672327
200	0xbcc5f2de	-0.02416366
201	0xbd58c4a7	-0.052921917
202	0x3d84a7a1	0.06477285
203	0xbda22a23	-0.07918193
204	0x3c77cd17	0.015124581
205	0xbe8887ff	-0.26666257
206	0x3d64592d	0.055749107
207	0x3dce52d0	0.10074389
208	0x3dfd7a7a	0.12376876
209	0x3e2e7ca9	0.17039742
210	0xbe546c66	-0.20744476
211	0xbdbad826	-0.09123258
212	0x3e1e2fda	0.15447941
213	0x3d4aa670	0.049475133
214	0x3dc5419e	0.09631656
215	0x3dc2f0fa	0.09518619
216	0x3e422306	0.18958673
217	0xbd0dbb0e	-0.034602217
218	0x3e85a057	0.26098892
219	0xbdd8a517	-0.105783634
220	0xbd341cf5	-0.043972928
221	0x3cb088ea	0.02154966
222	0x3e1e73a8	0.15473807
223	0xbd57b5ed	-0.052663732
224	0x3ddf6f50	0.10909903
225	0xbdf9e680	-0.122021675
226	0x3e0ca214	0.13733703
227	0x3e1b3ea2	0.15160611
228	0x3d96b60a	0.0735894
229	0xbcec4157	-0.02883975
230	0xbd67ccd8	-0.05659184
231	0x3e3f1743	0.18661217
232	0xbc0a47a2	-0.00843993
233	0xbe7d7e21	-0.24755146
234	0xbe34267a	-0.17592803
235	0xbd090ae3	-0.033457648
236	0x3da36ff5	0.079803385
237	0xbc5c5514	-0.013448019
238	0x3d81cf95	0.06338421
239	0x3dba210a	0.09088333
240	0xbd5a65b3	-0.053319644
241	0x3c7a0d20	0.015261918
242	0xbe1b7366	-0.1518074
243	0xbe35d908	-0.17758572
244	0x3d541ff9	0.051788304
245	0xbdcf99c1	-0.10136748
246	0x3e5ad68e	0.21370909
247	0x3dd094f1	0.10184658
248	0xb900e195	-0.00012291067
249	0xbe872a10	-0.2639928
250	0x3dd30ee5	0.10305575
251	0xbe284dba	-0.164359
252	0xbc1814f6	-0.009282341
253	0x3dbdfce1	0.092767484
254	0xbd1be1fe	-0.03805732
255	0xbe51c9db	-0.20487158

oDecoder.oGRU.weight_hh_l0 f4 [96, 32]
0	0xbe0ed2ad	-0.13947554
1	0xbd51854f	-0.051152524
2	0xbd976822	-0.07392909
3	0xbdd9eeed	-0.106412746
4	0xbdecb5e7	-0.115581326
5	0xbe633b26	-0.22190532
6	0xbe5adb06	-0.21372613
7	0xbd47e3cd	-0.048801232
8	0x3e11d78b	0.1424238
9	0xbeba3670	-0.36369658
10	0xbd9f182b	-0.077682815
11	0xbe9a45de	-0.3013143
12	0xbd5b256a	-0.053502478
13	0xbd751588	-0.059834987
14	0x3e196715	0.14980729
15	0xbde2e0a1	-0.11078001
16	0x3e34b156	0.17645773
17	0xbdb42107	-0.08795362
18	0x3e142003	0.14465337
19	0x3e80f540	0.2518711
20	0x3ea189e9	0.3155053
21	0x3d7a869c	0.06116353
22	0xbe2fa88a	-0.17154136
23	0xbe3622c1	-0.17786695
24	0xbda8ca9d	-0.082417704
25	0x3eb42339	0.35183123
26	0x3e83236d	0.25612965
27	0xbe6a7f7c	-0.22900194
28	0x3c92bc2f	0.017911999
29	0x3d45c647	0.048284795
30	0xbc3c9215	-0.011509438
31	0x3d068a06	0.032846473
32	0x3bb47c98	0.005508017
33	0x3e2138ce	0.15744326
34	0xbe8549d6	-0.26032895
35	0xbe3cfbb5	-0.18455394
36	0x3e23c245	0.15992077
37	0xbd18b9dd	-0.037286628
38	0xbe9035d7	-0.28166077
39	0xbda90dc6	-0.0825458
40	0x3dbd0225	0.09228925
41	0xbd5fde00	-0.054655075
42	0xbd59d7cc	-0.053184316
43	0xbde72e07	-0.11288076
44	0x3ce876f7	0.02837704
45	0xbe8eb5d6	-0.27873105
46	0x3e76ca09	0.24100508
47	0x3d5c8b9b	0.053844076
48	0xbd2f4014	-0.04278572
49	0xbe8b340d	-0.2718815
50	0xbdcd7a02	-0.10033037
51	0x3e19300c	0.14959735
52	0x3e7fd37f	0.24983023
53	0xbe974039	-0.29541185
54	0xbec4179c	-0.38299263
55	0x3d216d73	0.03941102
56	0x3da9adf9	0.08285136
57	0x3dd5b232	0.10434379
58	0xbe1f4683	-0.15554242
59	0xbe8e8f39	-0.27843645
60	0xbda0b7cd	-0.07847557
61	0xbe128b67	-0.1431099
62	0x3c4bc26f	0.012436493
63	0xbdc54276	-0.09631817
64	0x3db5f2a2	0.08884169
65	0x3e2c3285	0.16816147
66	0x3d759cde	0.059964053
67	0xbe8756ee	-0.2643351
68	0x3e5e2117	0.2169231
69	0xbe2b26bb	-0.16713993
70	0xbcc6e994	-0.0242813
71	0xbe84cf5b	-0.2593945
72	0x3e2bbd83	0.16771512
73	0xbe203d3c	-0.15648359
74	0xbe1655dc	-0.1468119
75	0xbe9b1575	-0.30289808
76	0xbdc37898	-0.09544486
77	0xbdd74b8c	-0.10512456
78	0x3d9dedbd	0.077113606
79	0xbc9562a1	-0.018235506
80	0x3d84bf78	0.06481832
81	0xbdd6ecbb	-0.104943715
82	0xbc140b15	-0.009035845
83	0xbe5f7dae	-0.21825287
84	0x3dd598d4	0.1042954
85	0xbc4d2ea1	-0.012523324
86	0xbdd7df53	-0.105406426
87	0xbe302afd	-0.17203899
88	0x3db4d8aa	0.08830388
89	0x3e941e31	0.28929284
90	0xbdba4568	-0.090952694
91	0x3e19f1a0	0.15033579
92	0xbd225245	-0.03962924
93	0xbe191207	-0.14948283
94	0xbe164e15	-0.14678223
95	0xbe7cfb59	-0.24705257
96	0x3e0a0c96	0.13481364
97	0xbd6dccfb	-0.058056813
98	0xbcfe2383	-0.031022793
99	0xbe7a60d3	-0.24450998
100	0x3e0b8e37	0.1362847
101	0xbe8d33c4	-0.27578557
102	0xbd635b80	-0.055507183
103	0xbe0b8fc8	-0.13629067
104	0x3e352ff6	0.17694077
105	0xbdc862a6	-0.09784441
106	0xbd1c212a	-0.038117565
107	0xbdf8a3d5	-0.121406235
108	0x3e30ee6f	0.17278455
109	0x3dd9d6cd	0.10636673
110	0x3e60ff31	0.21972348
111	0x3cc03f95	0.023467818
112	0x3e84605e	0.25854772
113	0xbe218b93	-0.157759
114	0x3e3fe691	0.18740298
115	0xbdd3c5ec	-0.10340485
116	0x3e0f7dea	0.14012876
117	0xbe0f53b6	-0.13996777
118	0xbdf807dc	-0.12110874
119	0xbd8115fe	-0.06303023
120	0xbd6d9f02	-0.05801297
121	0x3e97444b	0.2954429
122	0xbd9546fd	-0.072889306
123	0xbe196670	-0.14980483
124	0x3d4f76eb	0.05065052
125	0xbe7dfce7	-0.24803506
126	0x3de0cc95	0.10976521
127	0x3d5e193b	0.05422328
128	0x3e748e76	0.2388247
129	0x3b56574c	0.0032705842
130	0x3d80ade2	0.062831655
131	0xbc3742d9	-0.011185371
132	0x3d072868	0.03299752
133	0xbe39e304	-0.18153006
134	0xbe246eff	-0.16057967
135	0x3c02cfe7	0.007984138
136	0x3e88e364	0.26735985
137	0xbd9b9917	-0.07597559
138	0x3d8e8e78	0.069607675
139	0xbe71fd96	-0.23631892
140	0x3e9f142a	0.3107007
141	0xbe3884ed	-0.18019457
142	0xbc3cf0b5	-0.011531998
143	0x3e8af417	0.2713935
144	0x3de113d8	0.10990113
145	0x3d2a0aee	0.04151433
146	0x3d8bf1e0	0.06833243
147	0xbca92cca	-0.02065124
148	0x3d903b19	0.07042522
149	0xbe27b12f	-0.16376184
150	0x3d57f38d	0.052722502
151	0xbe554201	-0.2082596
152	0xbe1f81c9	-0.15576853
153	0x3e3ec568	0.18629992
154	0xbe21dcb4	-0.15806848
155	0x3dac2dbf	0.08407163
156	0xbe00d2a9	-0.1258036
157	0xbd6f036d	-0.058352876
158	0x3d9aa9b8	0.075519025
159	0x3da426ab	0.08015188
160	0xbdd3918f	-0.103304975
161	0x3d2cd765	0.042197604
162	0x3c88e510	0.016710788
163	0xbdeb2099	-0.11480827
164	0x3e801c9a	0.2502182
165	0xbea3ae93	-0.31969127
166	0xbddb3a98	-0.10704535
167	0x3d2d1b5e	0.042262428
168	0xbcce9450	-0.025217205
169	0x3e08857f	0.13332175
170	0xbdb3271b	-0.08747693
171	0x3cabcf90	0.020972997
172	0xbd264dff	-0.040601727
173	0xbddffab4	-0.1093649
174	0xbe4ad632	-0.19808272
175	0x3dd36375	0.10321704
176	0x3d9274f5	0.07151214
177	0xbdf2f856	-0.118637726
178	0xbc630652	-0.013856487
179	0xbe59b275	-0.21259482
180	0x3dc39e5b	0.09551688
181	0xb985ca37	-0.000255184
182	0xbe0c50d6	-0.13702711
183	0xbc0b113f	-0.0084879985
184	0x3c31d324	0.0108535625
185	0xbd0b220b	-0.033968013
186	0xbd1f64f2	-0.03891463
187	0xbe387448	-0.18013108
188	0x3c0cdf40	0.008598149
189	0xbe331242	-0.17487434
190	0xbd896ca7	-0.06710177
191	0x3d5ad0a8	0.053421646
192	0x3e57868f	0.21047424
193	0x3dcb5bcc	0.09929618
194	0x3d1778ce	0.036980443
195	0xbc6e826b	-0.014557461
196	0x3e0cb727	0.13741742
197	0xbe92d400	-0.28677368
198	0xbdcbef61	-0.09957767
199	0x3daa424e	0.08313428
200	0x3c68c882	0.014207961
201	0xbd93beb0	-0.07214105
202	0xbd1d61f3	-0.03842349
203	0xbd165f81	-0.036712173
204	0x3d9331ba	0.07187219
205	0xbe13ef51	-0.1444676
206	0xbe4f17a5	-0.20223863
207	0x3c924777	0.017856343
208	0xbe401428	-0.18757689
209	0xbdd3749d	-0.103249766
210	0x3e2bf94d	0.1679432
211	0xbda62b6b	-0.0811375
212	0x3db7a083	0.08966162
213	0xbeb2ebdb	-0.34945568
214	0xbe45159d	-0.19246526
215	0x3d6459e6	0.055749796
216	0x3d2e8416	0.042606436
217	0x3d8b3394	0.06796947
218	0xbe59856b	-0.21242301
219	0xbda1c6f7	-0.07899278
220	0x3d2a90f1	0.041642133
221	0xbe56a32b	-0.20960681
222	0xbe24700a	-0.16058365
223	0xbe5b2ece	-0.21404573
224	0x3ce3f32f	0.02782592
225	0xbdb88008	-0.09008795
226	0xbd960118	-0.07324427
227	0xbdb5caf2	-0.08876599
228	0x3ca51454	0.020151295
229	0xbe3f58ed	-0.18686266
230	0xbda89d87	-0.08233171
231	0xbe331ca0	-0.17491388
232	0x3e9628d6	0.2932803
233	0xbe0c458d	-0.13698407
234	0xbd1cdb8b	-0.03829531
235	0xbe6cda8a	-0.23130241
236	0xbdb3cd81	-0.08779431
237	0xbde4a137	-0.11163562
238	0x3e893b57	0.26803085
239	0x3d49f260	0.049303412
240	0xbe09058f	-0.13381027
241	0xbec0b637	-0.3763902
242	0xbd5fab0b	-0.05460648
243	0xbe22a278	-0.1588229
244	0x3ec3d8f0	0.38251448
245	0xbe8cde73	-0.27513465
246	0xbda63243	-0.081150554
247	0x3e23018e	0.15918562
248	0x3e0e8b6e	0.13920376
249	0x3ec7bdfa	0.39012128
250	0xbe1667d6	-0.14688048
251	0xbbe46c32	-0.0069709057
252	0x3d868b07	0.06569486
253	0xbe4875cd	-0.19576187
254	0xbd3eafe4	-0.04655446
255	0xbdb9ff70	-0.09081924

oDecoder.oGRU.bias_ih_l0 f4 [96]
0	0x3d4f8ff1	0.050674383
1	0x3e8adae5	0.27120128
2	0xbd6108ca	-0.054940023
3	0x3e6f73e3	0.23384051
4	0xbc160878	-0.009157293
5	0xbb9b6b23	-0.0047429963
6	0x3ea8b2b8	0.32948852
7	0x3e8c1270	0.27357817
8	0x3e2bcf5c	0.1677832
9	0x3e7f5733	0.24935608
10	0x3daf3076	0.08554165
11	0x3d832136	0.06402819
12	0xbd81615f	-0.063174
13	0x3d464787	0.048408058
14	0xbd5bce76	-0.053663693
15	0x3ea18206	0.31544513
16	0xbd4f3fee	-0.050598077
17	0x3e8e36bd	0.27776137
18	0x3e7ef124	0.24896675
19	0x3cf8f519	0.03039031
20	0x3e0e38b8	0.13888824
21	0x3e2aec7e	0.16691777
22	0x3d30c346	0.043154977
23	0x3d1394a2	0.03603042
24	0x3e2f99a0	0.17148447
25	0xb9112a58	-0.00013844052
26	0x3d9d2faa	0.07675107
27	0xbc4598bc	-0.0120603405
28	0x3e811f45	0.2521917
29	0x3de01fd6	0.10943572
30	0x3e5e9184	0.21735197
31	0x3e249722	0.16073278
32	0xbeb94a42	-0.36189467
33	0xbe0a37a2	-0.13497785
34	0xbdc4f8fe	-0.09617804
35	0xbd404914	-0.046944693
36	0xbe10e026	-0.14148006
37	0xbd1fe468	-0.039036185
38	0xbcb294fe	-0.02179956
39	0xbeba6bd2	-0.36410385
40	0xbdbc14de	-0.091836676
41	0x3e5ce414	0.2157138
42	0x3e1da8a4	0.15396363
43	0x3e808d45	0.2510778
44	0xbdff53b9	-0.12467141
45	0x3e00aa8f	0.12565063
46	0x3de2c305	0.11072353
47	0xbe9a6c35	-0.3016068
48	0x3d9a4494	0.075326115
49	0x3db9c2fc	0.090703934
50	0xbdc2fa41	-0.095203884
51	0xbe329b99	-0.17442168
52	0x3da61e2f	0.08111226
53	0xbe79aaf5	-0.24381621
54	0x3d0ea9e6	0.034829997
55	0xbe942b8c	-0.28939474
56	0xbd9c5130	-0.07632673
57	0xbd0d72e7	-0.034533408
58	0xbea33d12	-0.3188253
59	0xbda404b6	-0.08008711
60	0xbe978680	-0.29594803
61	0x3de81905	0.11332897
62	0xbe15534b	-0.14582555
63	0xbe4112db	-0.18854849
64	0x3caaadf6	0.020834904
65	0xbe812770	-0.252254
66	0x3e4d5587	0.20052157
67	0xbeb16602	-0.34648138
68	0x3d94d654	0.07267442
69	0x3b132d79	0.0022457524
70	0xbd432491	-0.047642294
71	0x3e94d6e3	0.29070196
72	0xbd66e7a8	-0.05637327
73	0xbd80608a	-0.06268413
74	0xbe47a529	-0.19496597
75	0xbe9a3831	-0.30120996
76	0x3e01969b	0.12655108
77	0xbd200a0c	-0.03907208
78	0xbe3d8484	-0.18507582
79	0xbd621dc4	-0.055204168
80	0x3e358011	0.17724635
81	0x3aca23fd	0.0015422102
82	0x3e41994d	0.18906136
83	0xbda23604	-0.07920459
84	0x3e49c6a8	0.19704688
85	0xbdee6416	-0.11640184
86	0xbd6e73a1	-0.05821574
87	0x3cfcc72f	0.030856697
88	0x3bfd87bb	0.0077371276
89	0x3dab9381	0.083777435
90	0xbe1c2fd0	-0.15252614
91	0xbe4b0678	-0.19826686
92	0x3dd0468c	0.10169706
93	0xbd32c636	-0.04364606
94	0xbe1f7adb	-0.1557421
95	0xbd9f048b	-0.077645384

oDecoder.oGRU.bias_hh_l0 f4 [96]
0	0xbd1962c5	-0.03744771
1	0x3e837a05	0.2567903
2	0x3db08ec1	0.08620978
3	0x3dfb6d92	0.12276758
4	0x3cab0081	0.020874264
5	0x3e5e39ce	0.21701738
6	0x3eb094ec	0.34488618
7	0x3e56122d	0.20905371
8	0xbcf8ca8d	-0.030370021
9	0x3e04cdd4	0.12969142
10	0xbcfcb9ff	-0.030850409
11	0x3ddd7c3b	0.10814711
12	0x3e7f4e2f	0.24932168
13	0x3e9fec95	0.31235185
14	0x3e2e1e9c	0.17003864
15	0x3e89392e	0.26801437
16	0xbdbf4e4c	-0.09341106
17	0x3ea7f4b5	0.32803884
18	0x3e1e42e2	0.15455201
19	0xb9ef8a92	-0.00045688875
20	0x3e426906	0.18985376
21	0x3cfcea0a	0.030873317
22	0x3eaff25b	0.3436459
23	0x3e4bda98	0.19907606
24	0x3d1a4064	0.037659064
25	0xbb8f7cb2	-0.0043788785
26	0x3d71a7d0	0.05899793
27	0x3df8de14	0.12151733
28	0x3e30b58c	0.17256755
29	0x3e4b8fe0	0.19879103
30	0x3e0f0919	0.13968314
31	0x3e5f5c3a	0.21812525
32	0xbec0bacc	-0.37642515
33	0xbe6c7302	-0.23090747
34	0xbe90f01f	-0.28308198
35	0x3df9b2de	0.12192319
36	0x3d06b600	0.032888412
37	0xbcdabc71	-0.026701184
38	0x3e011940	0.12607288
39	0xbea3b36c	-0.31972826
40	0xbe7b129a	-0.24518815
41	0xbc87546b	-0.016519746
42	0xbe3ae258	-0.18250406
43	0x3e0c18f1	0.1368139
44	0x3c968255	0.018372694
45	0x3e221190	0.15827012
46	0x3c0bde25	0.00853685
47	0xbeb09e41	-0.34495738
48	0xbdd9e602	-0.10639574
49	0x3d16f7aa	0.036857285
50	0xbea14ef7	-0.31505558
51	0xbd4e855b	-0.050420146
52	0xbd659cb8	-0.05605766
53	0xba38172c	-0.0007022496
54	0xbdab1157	-0.08352917
55	0xbdb4317f	-0.08798503
56	0xbdbb3b40	-0.091421604
57	0xbd87d947	-0.06633239
58	0xbdc2a29e	-0.09503673
59	0x3cd7c49f	0.026338873
60	0xbe1ba61c	-0.15200084
61	0xbd1086d9	-0.03528485
62	0xbe4454d3	-0.19172983
63	0xbeac2765	-0.33623806
64	0x3e2dd070	0.16974044
65	0xbd17afeb	-0.037033003
66	0x3e2e394b	0.17014043
67	0xbe7d0630	-0.24709392
68	0x3cc319ff	0.023816107
69	0xbc8cb72d	-0.017177189
70	0xbe1ad716	-0.15121111
71	0x3e943db4	0.28953326
72	0x3e7143ff	0.23561095
73	0xbe65df93	-0.22448568
74	0x3c97cabd	0.01852929
75	0xbdb050c6	-0.08609156
76	0x3e0fa60f	0.1402819
77	0xbd7e9d77	-0.06216189
78	0xbe6d82d8	-0.23194444
79	0xbe1c940f	-0.15290855
80	0xbd0fcdf7	-0.035108533
81	0xbe5cd437	-0.21565329
82	0x3d8f5b2b	0.06999811
83	0xbe1c38f6	-0.15256104
84	0x3ea71979	0.32636622
85	0xbe6821d9	-0.22669162
86	0xbe990c01	-0.2989197
87	0x3e240e3c	0.16021055
88	0x3d814dc9	0.063136645
89	0xbe0e876c	-0.13918847
90	0xbe8afaaf	-0.2714438
91	0xbea0565c	-0.31315887
92	0xbe7abeb9	-0.24486817
93	0xbe95548c	-0.29166067
94	0x3e4fa656	0.20278296
95	0xbe3a4028	-0.18188536

oDecoder.oLinear.weight f4 [55, 32]
0	0xbd619357	-0.055072155
1	0x3e848c1b	0.25888142
2	0xbe8d2093	-0.27563915
3	0x3e49c7ef	0.19705175
4	0x3cf7953e	0.030222531
5	0x3e995cfb	0.2995375
6	0x3e9e17b5	0.30877462
7	0x3da63314	0.08115211
8	0xbebdf334	-0.37099612
9	0x3de7ca0b	0.113178335
10	0x3eb1a6b5	0.346975
11	0x3e5632cb	0.20917813
12	0xbe7e86ee	-0.24856159
13	0x3e43507a	0.19073668
14	0xbe218f2a	-0.15777269
15	0x3e8a3ba4	0.26998627
16	0xbbb332a2	-0.0054686824
17	0x3df76bb8	0.120810926
18	0xbe89e6bd	-0.26933852
19	0x3da86de4	0.08224085
20	0xbe65acfb	-0.22429268
21	0x3eb3644a	0.35037452
22	0x3ed82733	0.42217407
23	0xbda33836	-0.07969706
24	0xbe292bb5	-0.16520579
25	0xbece8349	-0.40334538
26	0x3e9b5db5	0.3034493
27	0x3edfa247	0.43678495
28	0xbdb26b3d	-0.0871186
29	0x3e9d651b	0.307412
30	0x3db0117d	0.085970856
31	0x3ec85c1f	0.39132783
32	0xbb2e73a8	-0.002661923
33	0xbc04efc4	-0.008113805
34	0x3e43b494	0.19111854
35	0xbe00d001	-0.12579347
36	0x3e8d4e77	0.27598926
37	0xbe8a8ab5	-0.2705895
38	0x3ecefa2f	0.4042525
39	0x3e36133a	0.17780772
40	0xbddc6e55	-0.10763232
41	0x3df4593e	0.11931084
42	0x3ebaeca9	0.36508682
43	0xbd911402	-0.07083894
44	0x3e8bc712	0.27300316
45	0xbe8340ff	-0.25635526
46	0xbeac319c	-0.336316
47	0x3e9f2de1	0.3108969
48	0xbe836cca	-0.25668937
49	0x3e9f0248	0.31056428
50	0x3e2e6a5e	0.17032763
51	0xbe829721	-0.25505927
52	0xbc901c90	-0.017591745
53	0xbdf6b454	-0.120461136
54	0xbdbf320a	-0.09335716
55	0xbe4ae1d6	-0.19812712
56	0x3e074bf7	0.13212572
57	0xbe8607da	-0.26177865
58	0xbd3732c7	-0.04472616
59	0xbe47b41d	-0.19502302
60	0xbc583dae	-0.013198299
61	0xbe07c24c	-0.13257712
62	0x3e37b758	0.17941034
63	0xbd23c007	-0.039978053
64	0xbd0ac421	-0.03387845
65	0x3ead3274	0.33827555
66	0xbe8fc42f	-0.28079364
67	0x3eea4049	0.4575217
68	0x3d7a97b5	0.061179835
69	0x3ed6ec88	0.41977334
70	0x3e83c0f2	0.25733143
71	0xbddc4294	-0.10754886
72	0xbea69013	-0.32531795
73	0x3ec83cb5	0.39108816
74	0x3e234544	0.15944391
75	0x3ed6c118	0.41944194
76	0xbed3cc58	-0.4136684
77	0x3ed5fe53	0.41795596
78	0xbde7985c	-0.11308357
79	0x3ee57c5a	0.44821435
80	0xbd90395e	-0.07042192
81	0x3e5a941e	0.21345565
82	0xbdd521e7	-0.10406857
83	0x3d0318a5	0.032005925
84	0xbeb01098	-0.3438766
85	0x3eccef15	0.40026155
86	0x3e3e0ace	0.18558809
87	0x3c8fbf99	0.017547416
88	0xbe32cff5	-0.17462142
89	0xbe719de0	-0.23595381
90	0x3e138395	0.14405663
91	0x3eb56f1b	0.3543633
92	0xbdb4ce45	-0.08828405
93	0x3e908c2a	0.28231937
94	0x3e21f25d	0.1581511
95	0x3e97d045	0.29651085
96	0xbea4e373	-0.3220478
97	0x3eb8778f	0.36028716
98	0xbeb4df7e	-0.3532676
99	0x3bad33cf	0.005285717
100	0xb9fcbb8f	-0.00048204928
101	0xbdc80010	-0.09765637
102	0xbe1d8d58	-0.1538595
103	0xbd515605	-0.051107425
104	0x39bafc29	0.00035664559
105	0xbda4fe15	-0.08056275
106	0x3d32b1ef	0.043626722
107	0xbd4557c1	-0.04817939
108	0xbe40f1a4	-0.18842179
109	0x3e9906a6	0.29887885
110	0xbb88708c	-0.0041638073
111	0xbd1dcb42	-0.03852392
112	0x3d9e15e6	0.077190205
113	0x3d4e5234	0.050371364
114	0xbeb86bfd	-0.3601989
115	0x3e297945	0.16550167
116	0xbdb6b0ca	-0.089204386
117	0x3e5b037b	0.21388046
118	0xbe35b2e5	-0.17744024
119	0x3e88f7f6	0.2675168
120	0xbd339e20	-0.04385197
121	0xbddc787b	-0.10765167
122	0x3ebb3a59	0.36567953
123	0x3e4a8159	0.19775905
124	0x3e074d3b	0.13213055
125	0xbda7e6cf	-0.0819832
126	0xbe8a4c7e	-0.27011484
127	0x3e700b11	0.23441721
128	0xbe9608f8	-0.29303718
129	0x3e92d160	0.28675365
130	0xbdc093c6	-0.094031855
131	0x396384eb	0.00021697923
132	0xbe4afb25	-0.19822367
133	0x3d27e994	0.04099424
134	0xbe5b2ac8	-0.21403039
135	0xbe3f3b3d	-0.18674941
136	0xbe96c5a7	-0.29447672
137	0x3dac9285	0.08426384
138	0xbcfd585f	-0.030925928
139	0xbca883c4	-0.020570643
140	0xbd2080d9	-0.03918538
141	0x3e9e0676	0.30864304
142	0x3ce29586	0.027659189
143	0xbdb3ba73	-0.08775797
144	0x3e7c4d0c	0.24638766
145	0xbd9d7d7b	-0.07689949
146	0xbea6ce9e	-0.3257951
147	0x3e263686	0.16231737
148	0x3e0de69d	0.13857503
149	0x3e4fe5bc	0.2030248
150	0x3d266a79	0.040628884
151	0x3dbd319c	0.09237978
152	0xbc95c7db	-0.018283775
153	0xbe34a3ea	-0.17640653
154	0x3e7732e3	0.24140505
155	0x3e8c7586	0.27433413
156	0x3ea4168b	0.3204845
157	0x3d4eafdc	0.05046068
158	0xbe5bda36	-0.2146996
159	0x3d8b2cb1	0.067956336
160	0xbdc922bd	-0.09821079
161	0x3ebbdb49	0.3669074
162	0xbe779c5c	-0.2418074
163	0x3ea378d4	0.31928122
164	0x3ba67966	0.00508039
165	0x3db322a2	0.0874684
166	0xbc73bad8	-0.01487609
167	0xbde2e9c1	-0.11079741
168	0xbe52f2f1	-0.20600487
169	0x3e4c1094	0.19928199
170	0xbe03b356	-0.1286138
171	0x3d19ac0c	0.037517592
172	0xbd7a9672	-0.061178632
173	0x3eaa66e6	0.3328163
174	0x3cab1ffd	0.020889277
175	0xbd9c0ff3	-0.076202296
176	0x3e3f1555	0.18660481
177	0xbcf90a53	-0.03040043
178	0xbe165132	-0.14679411
179	0x3e8b6fe8	0.27233815
180	0x3c1c5346	0.009541338
181	0x3d224415	0.03961571
182	0x3e787981	0.242651
183	0x3e855827	0.26043817
184	0xbe033897	-0.12814556
185	0xbd6e46a5	-0.05817284
186	0x3e99b227	0.30018732
187	0x3e6726ba	0.22573367
188	0x3e5bc45c	0.21461624
189	0xbe11d7b3	-0.14242439
190	0xbdd4932f	-0.103796355
191	0x3e0b1d66	0.13585433
192	0xbd45e515	-0.048314173
193	0x3e9f8e5c	0.311633
194	0xbe8af1dc	-0.2713765
195	0x3bad8e6a	0.005296518
196	0xbe3e789e	-0.186007
197	0xbbf738af	-0.007544599
198	0xbc335c3f	-0.010947286
199	0xbe5293b1	-0.20564152
200	0xbdf9140f	-0.12162029
201	0xbd98804e	-0.07446347
202	0xbe4bef64	-0.19915539
203	0x3e3d5467	0.18489228
204	0x3be33394	0.006933639
205	0x3e148c9a	0.1450676
206	0x3e804b8e	0.25057644
207	0x3df21d48	0.11821991
208	0x3e6b4cf3	0.22978573
209	0x3d9a305a	0.075287536
210	0xbe483417	-0.1955112
211	0x3e18dc8a	0.14927879
212	0xbc02b067	-0.007976628
213	0x3e15db99	0.14634551
214	0xbcc11e48	-0.02357401
215	0x3e91254f	0.28348777
216	0xbe9462eb	-0.28981718
217	0xbe096df2	-0.13420847
218	0x3e943989	0.28950146
219	0x3eba1777	0.36346027
220	0x3dcd89a0	0.100360155
221	0xbd90c31f	-0.070684664
222	0xbe7fee9a	-0.24993363
223	0xba8434c7	-0.001008653
224	0xbe41a528	-0.18910658
225	0x3e81e851	0.25372556
226	0xbead83fb	-0.33889756
227	0x3dd0c088	0.101929724
228	0x3c40b4a3	0.011761817
229	0x3e3c5c30	0.18394542
230	0x3cc2dddb	0.02378743
231	0xbeb25f8a	-0.34838516
232	0xbe7fe22d	-0.24988623
233	0x3e0277a9	0.12740959
234	0xbe25e8a1	-0.16202022
235	0x3e629238	0.2212609
236	0xbe59f61c	-0.2128529
237	0x3cffe372	0.031236384
238	0x3e91229a	0.2834671
239	0xbd3d1dee	-0.04617112
240	0xbbe268ff	-0.006909489
241	0x3d56e76f	0.052466806
242	0xbe196973	-0.14981632
243	0x3e967aa0	0.2939043
244	0xbe03acc2	-0.1285887
245	0xbcc9a551	-0.024614962
246	0x3d52f07a	0.051498868
247	0x3d48bd03	0.04900838
248	0xbe5ca503	-0.21547322
249	0xbd918674	-0.07105723
250	0x3e53cf5d	0.20684572
251	0x3e9bbc7e	0.30417246
252	0x3e779469	0.24177708
253	0x3d804b4d	0.062643625
254	0xbcfcae1f	-0.030844746
255	0x3df0a5c9	0.11750371

oDecoder.oLinear.bias f4 [55]
0	0xbea60c29	-0.32431152
1	0x3e50e661	0.20400383
2	0xbe0d9dc4	-0.13829714
3	0x3dd5fa34	0.10448113
4	0xbc3641f9	-0.011124128
5	0x3da2ffd6	0.07958953
6	0xbe3ea084	-0.1861592
7	0xba5a6d91	-0.00083323667
8	0xbe2774d4	-0.1635316
9	0xbe1ad959	-0.15121974
10	0x3e113ca4	0.14183289
11	0xbe602f59	-0.21893062
12	0xbe522f02	-0.20525745
13	0x3e0b8f4c	0.13628882
14	0xbd55407f	-0.05206346
15	0x3bac8f66	0.005266118
16	0xbe1cf7c4	-0.1532889
17	0xbe05ca09	-0.13065352
18	0x3c46de68	0.012137987
19	0xbe3a40c7	-0.18188773
20	0x3e0c4d2a	0.13701311
21	0x3d85d6e2	0.06535126
22	0xbe1abc8c	-0.15110987
23	0xbe5fdc33	-0.21861343
24	0xbe20b577	-0.15694223
25	0xbcbf8508	-0.023378864
26	0xbe206b50	-0.15665936
27	0xbe2cdd60	-0.16881323
28	0xbe8a5f6c	-0.27025926
29	0x3dd7ae31	0.10531271
30	0xbd7116b1	-0.05885953
31	0xbd86235d	-0.06549714
32	0xbe1d8b12	-0.15385082
33	0x3c607172	0.0136989225
34	0xbc9ee3b8	-0.019395694
35	0xbddad152	-0.10684456
36	0x3d34cdfb	0.04414175
37	0x3e4768d0	0.19473577
38	0xbdd6cdcb	-0.10488471
39	0xbd2c295c	-0.04203163
40	0x3dab0ca2	0.08352019
41	0xbe099d78	-0.13438976
42	0xbc0ed847	-0.008718557
43	0x3d0dbc53	0.034603428
44	0xbe35ac52	-0.17741516
45	0xbe2e6f56	-0.17034659
46	0x3e612112	0.21985272
47	0x3db6560b	0.0890313
48	0x3d1eea1c	0.038797483
49	0xbbf145f5	-0.007363076
50	0x3da4ae8c	0.08041105
51	0xbe0a72e3	-0.13520388
52	0xbe0ec1c8	-0.13941109
53	0x3ddb4217	0.10705965
54	0xbe425e35	-0.1898125
